scheduling/decoder.pt (torch, 76036 bytes, 10 tensors)

weight f8 [2]
1.1186827569605102 1.0830287810621613
00000000: 81e9 fbe3 1fe6 f13f a09e b4fc 1554 f13f

bias f8 [2]
0.054269311697794934 0.035772413835617696
00000000: 5240 d6ed 2fc9 ab3f e1c0 0b07 c350 a23f

running_mean f8 [2]
-0.12009926929243075 -0.07392312167875209
00000000: c06d e261 d3be bebf bc49 072e a0ec b2bf

running_var f8 [2]
0.006679753995149045 0.008836485197188281
00000000: d297 45cf 3a5c 7b3f 06d5 77f7 dc18 823f

weight f8 [64, 2]
-0.21942129011607406 -0.4110211318266904 0.19653098669429347 0.5600029041211774 -0.19138641168455495 -0.5551782797715316 -0.0473418150733828 -0.4484253992035892
0.5345072366695875 0.5350149582959399 0.360690766360728 -0.06817066584531103 0.5981950990427704 -0.029116375376315274 0.3129078177355803 0.8253995657404192
0.4337123800301697 -0.1960516328209463 0.3934756342082354 0.6880762929646245 -0.6081622654538704 0.4557481525999196 -0.7020142938027188 0.24040869270791254
-0.6553458685349126 -0.5090387468880343 -0.41886663247318634 0.339675368153308 -0.2508871094500427 0.5123434710107091 -0.3111064385134058 0.6564339645035608
0.64669632347738 0.5492378135534396 0.6117603288771756 -0.3137502809786792 0.3942699566476787 -0.7592800615988513 0.42205151706263055 -0.8350459704417232
-0.6352514987771684 -0.52414087469482 -0.48014064690917213 -0.17651276926812515 0.6673874781058045 0.12213216148965715 0.2093267682372658 -0.7586056458300383
-0.06514890920326034 0.3567900457262399 -0.28149168421636567 -0.5569035234063359 0.1301794474130476 0.45692166375952703 0.3774999531487471 -0.8747610682601451
-0.7635001051132064 0.3974618796584255 -0.07008439302444458 -0.013557970523834229 -0.5053708603028579 -0.4955090065975612 0.48798678415723984 -0.12383509372969354
0.39914900341468074 -0.19640381492472758 -0.3615262422791738 0.02607195388432822 -0.8049628010085365 -0.08248805886667297 -0.5107470355610265 -0.09951564989197573
0.2060893308090359 0.5654291856156415 0.2522222999118266 -0.2125323736670531 0.6177954350614825 -0.5923300837640908 0.6015980088397612 -0.04178936293639786
0.8441591116490597 0.5747129604587531 -0.16652166070060084 -0.048594979330877995 -0.17784927364489075 0.2827645850458457 -0.7372738340246693 -0.5008599149070441
-0.6752686414946345 -0.5388101778332234 -0.33629871908878856 0.6897802880009439 0.7029620741702439 0.4318758369241238 0.15878921718158204 0.46664580572706127
0.38601890765300123 -0.72177820514363 0.13759506797061885 0.5256735062113145 0.5343216932165915 0.1128989397069906 0.1941311048999354 0.6176403183602822
-0.48315623127980484 -0.5363961570360855 0.23847365659382308 0.5830609478317174 -0.6671495578123029 -0.10619961797803316 0.591416556407632 -0.3874859865132024
-0.47687170397514494 0.6787585804273514 -0.4766570435970962 0.17016309430987858 -0.3261346041671317 0.004226724448803723 -0.23231347448896522 0.3485747781453904
-0.5596687595423662 0.08264572420303132 -0.39330597956901026 -0.1488235553307963 -0.3825292849686751 -0.10721747587193374 -0.11851477304223737 -0.2498244897534335
00000000: 051e 8c30 ff15 ccbf 4a46 ca93 2b4e dabf
00000010: 4055 4068 ed27 c93f 04b2 db35 8beb e13f
00000020: 10bf 8a95 597f c8bf 3d2f 623d 05c4 e1bf
00000030: 3769 f2b6 2f3d a8bf 399c 1172 00b3 dcbf
00000040: 2814 9feb ae1a e13f 490f 98b0 d71e e13f
00000050: a543 5fb9 8e15 d73f d626 5afc a173 b1bf
00000060: 8b84 600c 6a24 e33f 3dcc 13e0 aed0 9dbf
00000070: 2a92 f582 ae06 d43f 429b 9f59 ac69 ea3f
00000080: cd64 0692 f1c1 db3f f88c a54b 3818 c9bf
00000090: 6a9f 2c6d b42e d93f 86f3 ed92 b804 e63f
000000a0: ff23 19b6 1076 e3bf b742 a84c fa2a dd3f
000000b0: 7da1 26ae e676 e6bf 7863 6d48 b6c5 ce3f
000000c0: 25a3 1de6 97f8 e4bf 5ffd 48a0 0b4a e0bf
000000d0: 42e9 f6fd b5ce dabf f869 5ec1 3dbd d53f
000000e0: a5db 84ce 880e d0bf 80ec 8922 1e65 e03f
000000f0: 025e bffa 2ae9 d3bf 6cd8 30cd 8101 e53f
00000100: cdeb f87c bcb1 e43f c108 de2d 5b93 e13f
00000110: c890 b065 8a93 e33f e082 fa0e 7c14 d4bf
00000120: 2e37 660e b83b d93f 444d 22b3 054c e8bf
00000130: 3eb7 c05d e402 db3f 6685 b653 b2b8 eabf
00000140: 1974 7ff3 fa53 e4bf 6af4 6915 c3c5 e0bf
00000150: a221 fdd5 9fba debf 769f aa6d f897 c6bf
00000160: d82d 07fc 3c5b e53f 534b 63a7 0d44 bf3f
00000170: a3d2 e033 38cb ca3f c6d4 ec58 7f46 e8bf
00000180: 59e8 6552 99ad b0bf d1ae 7bea a5d5 d63f
00000190: 3789 73b2 f503 d2bf 15d6 8156 27d2 e1bf
000001a0: d20c a05a b8a9 c03f c496 ab5c 343e dd3f
000001b0: 55fc 4090 f528 d83f 1db9 7fec 0afe ebbf
000001c0: 6685 bec5 976e e8bf 3889 a2f3 0370 d93f
000001d0: 0000 0000 0df1 b1bf 0000 0000 48c4 8bbf
000001e0: e444 ab82 ff2b e0bf 3570 8d68 6bb6 dfbf
000001f0: c079 b5eb 2c3b df3f 6487 aa1d a8b3 bfbf
00000200: 3469 f942 a88b d93f d8a6 f49c c223 c9bf
00000210: 5b07 cff6 3e23 d7bf 55a2 1a35 9bb2 9a3f
00000220: c780 1a59 41c2 e9bf ff93 24fb ef1d b5bf
00000230: 116f c82a 0a58 e0bf aae9 b98d db79 b9bf
00000240: 088e f09b 2261 ca3f fc89 8df2 fe17 e23f
00000250: 5f5d 5c00 6924 d03f 1be1 1ec5 4234 cbbf
00000260: 0ca1 a6ee fac4 e33f cc84 4638 5ef4 e2bf
00000270: 9ac6 a977 4a40 e33f 7ad7 4356 6a65 a5bf
00000280: 64e6 24f8 5903 eb3f f63e 386f 0c64 e23f
00000290: b170 64ef 9450 c5bf 63ab f3ed 70e1 a8bf
000002a0: 5b09 f6d6 c3c3 c6bf 6e4a 4fa1 d018 d23f
000002b0: bba3 aa4b bf97 e7bf 2ce6 4c5f 0b07 e0bf
000002c0: 527b 67fb cc9b e5bf df75 91d7 ee3d e1bf
000002d0: 0d13 0b10 eb85 d5bf e976 4c1c ae12 e63f
000002e0: fb76 dc51 aa7e e63f 3464 e18c daa3 db3f
000002f0: 8d4c 607f 3453 c43f 7873 9a5e 86dd dd3f
00000300: 5977 00a6 88b4 d83f cbd6 419b ce18 e7bf
00000310: 8929 8316 b79c c13f d4a3 b13e 51d2 e03f
00000320: 4c13 bdce 2919 e13f ef6a cbe5 f1e6 bc3f
00000330: 9e3d 57bd 49d9 c83f d38c 01a1 b5c3 e33f
00000340: d924 0d1d 08ec debf 3171 0546 282a e1bf
00000350: aa95 0306 4e86 ce3f 3562 d06e 6fa8 e23f
00000360: cd07 8b07 4a59 e5bf 7337 10ee e52f bbbf
00000370: d3ad 026a e2ec e23f 4de1 ee05 92cc d8bf
00000380: b181 3de5 1085 debf 5513 1aea 63b8 e53f
00000390: b315 6a8b 8c81 debf 1e07 867e e7c7 c53f
000003a0: 9a78 bfac 63df d4bf 36d6 6db4 0a50 713f
000003b0: 88d4 acab 72bc cdbf f612 1696 0c4f d63f
000003c0: a879 5a75 cee8 e1bf 8a33 9b2a 4528 b53f
000003d0: 3a7d e4d7 ec2b d9bf 7596 8277 a60c c3bf
000003e0: 6ef9 2c1c 5c7b d8bf dffb 6dc0 9a72 bbbf
000003f0: 722c 4ff2 fb56 bebf 9b8d 9db6 3ffa cfbf

bias f8 [64]
-0.3684820811447135 0.09001624010075328 0.08302938281497607 0.16198728294684514 0.39273779291542205 0.26197747869020055 -0.5681137731190987 0.10129787793896931
-0.07475278057639793 0.07423664517490972 0.285046244389007 0.16583334812781353 0.14841559799437168 -0.360190382488868 0.03891325838527141 -0.4747512451911652
-0.19161909901919386 -0.17505363291841738 -0.10321345684311797 -0.11940695127591278 0.15761305097365358 0.09243032982357419 -0.12064550567371034 -0.04145658542395009
0.07355374558734092 0.10356667385719821 -0.11707264153766893 -0.13004812951308695 0.22395697398230363 -0.6324397325515747 0.14158723854625221 -0.11490519608515105
-0.8124483090686017 -0.7993171667521632 0.2757596771542803 0.2611437211896632 0.11525137006464324 0.1377174467406593 -0.3203711981723444 -0.7377996142279629
-0.18780022415658731 -0.5876824878879235 0.08608355144178648 0.05782387637308459 0.14860637971079388 0.04976996578476746 -0.13481095900682008 -0.6259805680567925
-0.07984143556733624 -0.5092200760658209 0.15792627111036858 -0.7036155306368931 0.1501365612851633 -0.4373157046296417 0.29512580551131096 -0.1344906114620766
0.12253906054659963 -0.8575808311418086 -0.5253453767334627 -0.9785318063478194 0.19438181712434308 0.22287953531825186 -0.9489172460776 -0.8686099193503176
00000000: 926d ebdd 3595 d7bf 5974 57e7 4d0b b73f
00000010: 8821 cce3 6941 b53f d7f2 4fd1 ffbb c43f
00000020: b765 1eb2 9d22 d93f 25d4 d02f 3dc4 d03f
00000030: a784 7eef fc2d e2bf 43ee e660 a8ee b93f
00000040: 6356 dc8b ff22 b3bf f2e4 303b 2c01 b33f
00000050: ede5 5f9a 323e d23f 36c7 65f3 063a c53f
00000060: ed11 cd45 48ff c23f 19e6 47f6 5b0d d7bf
00000070: 0584 4a48 70ec a33f 8a34 f50b 5362 debf
00000080: 3dc8 c981 f986 c8bf a11d 374e 2868 c6bf
00000090: eef6 a575 326c babf fc25 a536 7491 bebf
000000a0: 4a64 ad19 aa2c c43f cc30 c09b 83a9 b73f
000000b0: ef28 47b5 9fe2 bebf 580b 332d cc39 a5bf
000000c0: 4dc2 cb13 6bd4 b23f f912 2c75 5883 ba3f
000000d0: 571e a9fe 78f8 bdbf 4314 95c7 6aa5 c0bf
000000e0: f488 7b43 9faa cc3f 0000 0040 f23c e4bf
000000f0: 3826 8bd7 871f c23f 4181 534b 6d6a bdbf
00000100: 107c a498 93ff e9bf 169f 4a98 0194 e9bf
00000110: c4b8 bbea 0ba6 d13f a02e 8427 94b6 d03f
00000120: a730 3f21 1d81 bd3f 0b7d ebac b9a0 c13f
00000130: 66c1 ae32 f680 d4bf 5b89 c3ef 0d9c e7bf
00000140: b28d 7776 d609 c8bf 3523 3d81 4bce e2bf
00000150: 687f 2a56 9209 b63f ac93 e653 179b ad3f
00000160: 4edb 6aaa 8805 c33f 22bb bcee 727b a93f
00000170: f1d0 094a 7c41 c1bf 9c88 7766 0808 e4bf
00000180: 4f9d a002 7d70 b4bf 2d6b a5e6 874b e0bf
00000190: df93 cc94 ed36 c43f 6b61 a1b7 0484 e6bf
000001a0: a9ab 53c2 ac37 c33f 2156 5a02 fbfc dbbf
000001b0: 761c b858 57e3 d23f f3a0 ec04 fd36 c1bf
000001c0: ccbb 8749 b85e bf3f 33c7 ed5a 4d71 ebbf
000001d0: c799 851b a1cf e0bf 9482 4bef 2150 efbf
000001e0: bb38 bedd 80e1 c83f 63dd 910d 5187 cc3f
000001f0: 0970 50b3 875d eebf eee7 9207 a7cb ebbf

weight f8 [128, 64]
0.1092395215594245 0.1011299053147689 0.0420768880411135 0.04635272317943617 0.0033250614514127664 0.024940047985913302 0.0005628744686680939 0.0021275506656766308
-0.0536664945212237 0.007562605475276793 0.0813452266028363 0.004295398018861961 0.018591256206050535 -0.018994231125761013 0.0725582132135524 -0.028637322595902875
0.07509010099569988 -0.15878435226809978 -0.12437706647929456 -0.03717593485361675 -0.031145007883618403 0.016126736494321905 -0.07323309494040679 0.0532351761267353
0.09204367125157707 -0.0670546858250722 0.08776410009563615 -0.1448793710507377 -0.003290190054038594 -0.08430959284305573 -0.07714514250225743 -0.014788592988974723
0.03421028649903165 -0.17348614970583218 -0.02977786397839167 0.06772654813721023 -0.03248134127908717 -0.1309285529032376 0.1297951808365124 -0.0018476363314218122
-0.03831219075435782 -0.1415366464365306 -0.04619165789605315 0.05976153273148874 -0.008325474480377631 0.07151540182218594 0.01164004528385162 -0.05789495024654177
-0.09961492395391813 -0.050494113290062176 -0.0964885942191871 0.04985802043424579 0.11516161862676974 -0.0018231139425756461 0.034666041580322125 -0.06766809824022177
0.007107687678887662 0.040180401120939783 0.056237072804152806 -0.20131644749549607 0.09318033181256061 -0.015895975385830294 -0.15346716559816306 -0.06197822962871639
-0.3065398070869846 -0.09131028107516709 0.022240890309283435 -0.053978141600173515 -0.012341932854612844 -0.00023975671232150648 -0.1191454949911563 0.04183185930909912
-0.029394776766819675 0.04423171960127918 -0.0531132672804642 0.10109103333400113 -0.12770967348157616 0.04876734963950957 0.07501202889916461 -0.04521126547078935
-0.08408201779255789 -0.051080323132077506 0.07987638824300584 0.11796339915301228 -0.07278929102670466 0.11934025332770226 -0.0004770093483222982 -0.10537817761058071
-0.0037962645912852093 0.004866920795668222 -0.11501102472467988 -0.06676194652137653 -0.13267063595104897 0.06942199170589447 0.044968499587468846 0.07577305769314255
-0.3861485629588999 -0.04676909095957122 -0.14727484518826905 0.013420223429219922 -0.10917577145140532 0.060728750567830364 -0.08591220405868406 0.052097756666632807
0.036326231534263696 0.04865390062332153 0.03624888315867516 -0.07800492423426138 -0.06367413738485972 0.07196380494386863 0.03651892051701171 -0.15462594481554678
-0.042459535219139824 -0.1262995680561087 0.02414167845844123 -0.019855793274618182 -0.07211361703321444 -0.19100771467524463 0.09873458381508049 -0.031011161788659813
-0.06337818056040069 -0.10063112056984833 -0.0772249170964633 -0.09430504611600272 0.061706416444327644 -0.11541780581663644 -0.17955311040966546 -0.09696852194676465
0.07760665744984338 -0.0027070931162344477 -0.11241608135565698 -0.09253706610682505 -0.006620465735676107 -0.01205629565679254 0.007828768364149336 -0.0028542639161667134
-0.007000064770669836 -0.00536209622991022 0.011080702636782637 -0.12166882594153622 -0.39732607814883997 -0.3619748817349449 0.04483690093441378 -0.4933469625765972
-0.005390747304828636 -0.0048411898697557736 0.008449561465728119 0.007968634201741095 -0.485374684655623 -0.3934391555564005 -0.0018851771952620982 0.0028705920002294587
0.020707902225543907 -0.2306080927676202 0.01778673103833291 0.008330694689532446 -0.030376829140615867 -0.009088188409805298 -0.22169204312601629 -0.004087867717230384
-0.13737551899922731 -0.03543706250034541 -0.8340673466514448 -0.5372389841316271 4.6397767236568924e-05 -0.014581550155695192 0.00767251244004534 -0.013095513500067333
-0.006491804875029195 -0.055588945746421814 0.0779222782427032 0.061433036370362286 -0.19495238964927264 0.030691256850344316 -0.00905543356533678 -0.5957748455109623
-4.168885596196514e-05 -0.2803380682482328 -0.0039797360264240515 -0.38237285861294473 -0.37907531369282427 -0.03626410292533319 -0.7494697331893461 -0.006624790828491665
0.032539620699590266 -0.06677273926315715 0.09761971847453073 -0.22080853063159633 -0.39734152943296264 -0.694537590201148 0.04113964223667977 -0.029976749206593826
0.3231482620778593 0.06904707283577191 -0.07676812992064633 -0.0028966475894423487 -0.005771397364723852 0.03821417542918925 -0.1108146132865298 0.014983239602179897
0.0003994814022835156 0.002465110700422333 0.029091848867172584 -0.06706360468846895 -0.23542292349434915 -0.3806538586033869 0.03690660673832675 -0.5031686284046956
0.010997254116513581 -0.012169766414166986 0.006987386316477384 -0.0029790671180149617 -0.10330528919650982 -0.14015793449938982 0.006748428266902213 0.006634193351164833
0.13095650063366956 -0.042303214034411334 0.057983404271555794 0.013648249331294262 -0.03906028009082922 0.04457762837409973 -0.14551033694041185 -0.016613578058965454
-0.36294826690042153 -0.039517762164013856 -0.17381662588231536 -0.14934673480148652 0.02485362526608608 0.025625776876642282 -0.021234122601748045 -0.15826336877053254
0.00731935040260753 -0.07528989017009735 0.04198935066880749 -0.05526371785378743 -0.09833370770261818 0.028886642029354752 0.009334772683338606 -0.9109780973032658
0.01842249731814296 -0.462074875390455 0.008367853030371023 -0.5733053245545172 -0.0873828804066115 -0.10945554122219646 -0.0905901571300552 -0.009741521354178842
0.010150837367763284 0.09106577184463795 -0.07572356991485883 -0.011567171910038447 -0.14335581450382956 -0.1314928410530261 -0.05881857546411011 -0.11458410079218144
00000000: 3746 870c 1ff7 bb3f 6c79 f943 a6e3 b93f
00000010: 9baa 1b14 1a8b a53f 90be 454c 8bbb a73f
00000020: 12bd 1cc6 283d 6b3f 5c36 d749 e289 993f
00000030: f3af a3b7 bb71 423f 4002 f310 cc6d 613f
00000040: fa1f b8bd 2c7a abbf a396 0573 f7f9 7e3f
00000050: 62e4 f16f 0ad3 b43f b2a2 3a20 0d98 713f
00000060: a70f 9615 9609 933f 98c1 fd45 3973 93bf
00000070: 79f3 ced0 2c93 b23f 3845 fa2f 1a53 9dbf
00000080: 6ea5 07d8 1a39 b33f fed3 0db0 0b53 c4bf
00000090: 26a7 e6e8 2cd7 bfbf 47fd c960 b908 a3bf
000000a0: c0da 2c19 7ae4 9fbf 9458 56f7 8683 903f
000000b0: 4300 c173 67bf b2bf fa18 ec18 a441 ab3f
000000c0: ef4c d48d 2c90 b73f 8d88 a9f2 7e2a b1bf
000000d0: de72 ac43 b577 b63f 7194 4340 688b c2bf
000000e0: a644 c055 07f4 6abf 0000 0040 5095 b5bf
000000f0: 26ab 17b8 c8bf b3bf 3f98 ee59 7b49 8ebf
00000100: 9b77 66bb 0284 a13f 3fd3 a54d cb34 c6bf
00000110: 834b ba9f 167e 9ebf 5ffe 51ed 8656 b13f
00000120: dc3b 0cf5 64a1 a0bf 597f 6a4e 44c2 c0bf
00000130: 5b84 6fe4 209d c03f db2d 9367 8c45 5ebf
00000140: 28fa a7cc a79d a3bf 67b1 d071 df1d c2bf
00000150: 4dec 05d8 6ea6 a7bf ccf9 4749 1099 ae3f
00000160: a36b ef44 f20c 81bf fe90 fc57 d54e b23f
00000170: ed78 8b6e bcd6 873f dd2b d32b 68a4 adbf
00000180: e05a 9318 5d80 b9bf f452 714a 5dda a9bf
00000190: a0c1 9bfc 79b3 b8bf 7db1 6a8e fd86 a93f
000001a0: 76a3 c159 3b7b bd3f 8bd6 a7b0 b1de 5dbf
000001b0: 9b0f bd55 bfbf a13f ce9c ec4c b252 b1bf
000001c0: 5798 1862 f31c 7d3f af5a 8289 8692 a43f
000001d0: c180 0809 1bcb ac3f 61ed 11c3 bcc4 c9bf
000001e0: b2ef c38d aada b73f f93e aed9 0847 90bf
000001f0: ab80 a0e4 cfa4 c3bf 457d a34a 9cbb afbf
00000200: 7e16 9723 599e d3bf 1ca4 014f 1c60 b7bf
00000210: 3d97 0ce2 50c6 963f aa42 bee1 05a3 abbf
00000220: 0b05 d72f ba46 89bf c7d6 117a e66c 2fbf
00000230: 4de7 73b4 5180 bebf 3ab0 5347 fc6a a53f
00000240: 00fe 8b13 aa19 9ebf a644 443a 8aa5 a63f
00000250: 0417 e883 a931 abbf 1ea0 161a 1ae1 b93f
00000260: 113c 7e63 ca58 c0bf c0ea a0b7 08f8 a83f
00000270: 6ab3 ed02 fd33 b33f 7033 3755 ee25 a7bf
00000280: 32c9 992c 6686 b5bf 998c a43a 3327 aabf
00000290: 63ef 396b c772 b43f f3b7 7c6d d932 be3f
000002a0: db6e 75a8 51a2 b2bf c88a 2335 158d be3f
000002b0: bac8 098d e342 3fbf 94ad 8c72 10fa babf
000002c0: c16f 8708 5819 6fbf 1fd5 641a 56ef 733f
000002d0: f337 dfcd 5c71 bdbf 8536 ed98 4f17 b1bf
000002e0: b74e 46f5 59fb c0bf 0000 00c0 a3c5 b13f
000002f0: e01f 2876 1c06 a73f 7ec0 b5f4 dc65 b33f
00000300: 6893 5376 a8b6 d8bf b91f 4548 1ef2 a7bf
00000310: c0b4 cdf1 e6d9 c2bf d23b dee5 0f7c 8b3f
00000320: 373c e67f f1f2 bbbf 9446 3bbb d617 af3f
00000330: 3963 c29a 57fe b5bf c903 28a2 8eac aa3f
00000340: 8b69 da10 5a99 a23f 0000 0000 2ae9 a83f
00000350: c3b6 5daf 368f a23f 355b 8376 21f8 b3bf
00000360: 8042 abc1 f24c b0bf 9dc9 ba4c 386c b23f
00000370: 5690 9ca2 9bb2 a23f 9b45 0c70 c8ca c3bf
00000380: 52d1 5696 41bd a5bf 8e63 2691 952a c0bf
00000390: 9057 cc9d 98b8 983f 03a3 00bb 1355 94bf
000003a0: 3301 c1ba 0976 b2bf 0e2d e8d7 f072 c8bf
000003b0: 184e 7870 ab46 b93f a0e5 c5d6 63c1 9fbf
000003c0: 8972 c96c 8d39 b0bf 46ad ce0b f6c2 b9bf
000003d0: 5999 5d1d 03c5 b3bf 357f ea20 6024 b8bf
000003e0: 54da 29c1 fb97 af3f c2c8 5b75 058c bdbf
000003f0: 3763 8da8 98fb c6bf 51b8 80d6 edd2 b8bf
00000400: 86ee b2a7 07de b33f 63b5 d88c 2f2d 66bf
00000410: c28e f7e0 4cc7 bcbf 04bb 9858 82b0 b7bf
00000420: 0db2 1abd 0f1e 7bbf b563 749c f8b0 88bf
00000430: 7060 bc80 8708 803f ed22 9245 d361 67bf
00000440: 0396 2894 19ac 7cbf 69a4 20bf 90f6 75bf
00000450: c790 88bb 7ab1 863f c492 5c2c b025 bfbf
00000460: 41d2 df5b ca6d d9bf 859a c1b1 982a d7bf
00000470: 38a8 55be dcf4 a63f 253c 7623 ff92 dfbf
00000480: c0fa 00b6 9b14 76bf ec15 a102 5bd4 73bf
00000490: a168 49f1 004e 813f 7e76 52fa db51 803f
000004a0: dfbd 39fb 6010 dfbf 8028 856c 1b2e d9bf
000004b0: f8f6 a699 01e3 5ebf 3c4c 5b58 1184 673f
000004c0: 0d56 4fcb 7334 953f 599f 50e4 9084 cdbf
000004d0: d515 7350 af36 923f d9bd f4e9 ae0f 813f
000004e0: b649 dc7e 1a1b 9fbf 0000 0000 d49c 82bf
000004f0: 973c 81a5 6760 ccbf a37a 7ea2 70be 70bf
00000500: e5b4 af60 8595 c1bf 92b5 0281 ce24 a2bf
00000510: 42f1 1001 aeb0 eabf 4769 5fcf 0f31 e1bf
00000520: a8b7 a224 6753 083f 887c 5988 eedc 8dbf
00000530: b05f 2160 366d 7f3f 452c a811 d2d1 8abf
00000540: 748f 159a 2697 7abf 0000 0080 2776 acbf
00000550: 24a6 aee4 b6f2 b33f 3799 35a4 2674 af3f
00000560: e00b e92c 33f4 c8bf b60d c861 876d 9f3f
00000570: 8120 1db8 a78b 82bf 19f8 a768 9610 e3bf
00000580: 7ce7 072f 62db 05bf 68cc bc14 0ff1 d1bf
00000590: 4c84 4841 0e4d 70bf 65b8 a702 cc78 d8bf
000005a0: 1506 c21a c542 d8bf fc89 2a60 3591 a2bf
000005b0: 987b 2cf3 a7fb e7bf 8b2a 38bf 9822 7bbf
000005c0: 803d 757d 08a9 a03f dd4b 66ab 0418 b1bf
000005d0: 55f7 4a1a 9bfd b83f 60c9 de34 7443 ccbf
000005e0: e675 902a 0b6e d9bf e935 78e5 a639 e6bf
000005f0: 518c f353 4110 a53f b14c ee95 39b2 9ebf
00000600: 9a8d 580c 76ae d43f ded3 b6a7 11ad b13f
00000610: 8a5e 627f 13a7 b3bf 6a28 45d5 b5ba 67bf
00000620: 6779 f0ae bfa3 77bf ef87 6cf3 ce90 a33f
00000630: 540a fcb3 585e bcbf 1fce a260 88af 8e3f
00000640: bf17 e48e 2f2e 3a3f 15d2 db3a b631 643f
00000650: 4fd5 dbed 40ca 9d3f 708b e394 142b b1bf
00000660: 3d87 919e 5622 cebf 6b0e 7300 a25c d8bf
00000670: b917 e539 6ce5 a23f 0de2 6b18 f519 e0bf
00000680: 9cb6 3576 ba85 863f 358e fd65 76ec 88bf
00000690: 40ad 6b3b ce9e 7c3f c2d7 057b 8e67 68bf
000006a0: 2f53 9a26 3772 babf b392 79f8 b1f0 c1bf
000006b0: 54bd 4a6b 3da4 7b3f c451 a8b7 742c 7b3f
000006c0: 93c9 b5bf 2ec3 c03f a743 9651 c4a8 a5bf
000006d0: 7039 1d32 00b0 ad3f 3b5a 3404 9df3 8b3f
000006e0: b61b 2083 b5ff a3bf 0000 0000 e1d2 a63f
000006f0: 11cb 312d 15a0 c2bf de2f bb59 2603 91bf
00000700: 478a 1e5e 8b3a d7bf 160a 3610 ac3b a4bf
00000710: c332 d589 9f3f c6bf 784e de36 cb1d c3bf
00000720: cecb d18e 3a73 993f 6aa5 7ac6 a43d 9a3f
00000730: fbf8 88d8 65be 95bf ce19 835c f941 c4bf
00000740: 5df1 b629 e5fa 7d3f 0000 00c0 3246 b3bf
00000750: 503c cecf a07f a53f 29be aca9 864b acbf
00000760: e85a adda 652c b9bf beb6 3abb 7594 9d3f
00000770: 04d0 1ffb 1b1e 833f 4f46 e989 bb26 edbf
00000780: a6e1 f7dd 58dd 923f e6bc 867f a292 ddbf
00000790: 024f d338 2a23 813f bab2 7268 8458 e2bf
000007a0: 03a1 9375 b95e b6bf ff51 ea41 4705 bcbf
000007b0: f48c 36a2 ea30 b7bf c82e 09dd 5cf3 83bf
000007c0: 9e26 2c54 f6c9 843f 6193 db1f 1650 b73f
000007d0: 9f18 52b0 9e62 b3bf cf91 7c88 87b0 87bf
000007e0: 4621 7ebb 7b59 c2bf 428d fde5 c1d4 c0bf
000007f0: b604 08e4 771d aebf bb42 8b35 6255 bdbf

bias f8 [128]
0.08852986198658655 -0.07807625865795242 0.12671392545997343 0.07880096687560066 0.21121661373240508 0.19145065544710077 -0.06138043911630054 0.0010737996925449366
0.11913224163945857 0.14168826328131426 -0.0690564090085655 0.17506228285366146 -0.15435909622954577 -0.00022302260667185595 0.275272032642043 0.03415371231293764
0.18118870631302544 -0.037309865793405374 0.04745682243214742 0.01513843818536393 0.019005903350740254 -0.1051794313643682 0.19263619506254961 -0.009465710641892904
0.15449558249840945 -0.008874160144373998 0.2511789938355423 0.26262370816816033 0.23812566872450794 0.20356288745751852 0.21055877922605237 0.10808391212624992
0.13031618620810617 0.09754483954927817 -0.002198094863703008 -0.010445387932060889 0.21558153711516284 -0.009891947996734204 0.050123925004870305 -0.0756193224140963
0.23638405157477058 0.08149705263437138 0.1574335919462795 -0.10741956905775943 0.06534119870449658 0.05833253541662891 0.015501111960113516 0.047328251416711146
0.18273586335170836 0.17025639755228655 -0.028624613925362904 -0.010353865919588557 -0.03699238199948466 0.21810564833192492 -0.005140665311865581 -0.14421471194198443
0.2481193453026275 0.14883452483611792 0.15220038377191003 0.0237189375774847 0.14249096584856077 0.1843453355188558 0.1908300630458788 0.3917200890315118
0.11001690268896479 0.09386823896044454 -0.12726814436275566 0.051636576148623416 0.1572300899015768 0.2851350230425604 0.2173689622756299 0.033967722997949576
0.02823450927792599 0.3213836250905171 -0.09613456987289645 0.15185678906203295 0.020947952522964223 -0.018816645470201114 0.2437286467323951 0.2616642085643297
0.008441695334498537 0.07827232010422852 0.18485129888145782 0.02060386357188061 0.06752886325658493 0.024324492145013924 0.1793144954877886 0.22927739590214505
-0.15140081709255712 0.31008298583276717 0.09025450269644143 0.1542031402521259 0.1750751115821257 -0.07557814978078632 0.14419231430103835 0.17490319211179806
-0.0183870663678006 0.004823710222640745 -0.05250301787675092 0.16156845679740242 0.13456840524023614 0.07239776894692006 -0.02505377511069733 0.1646842884648315
0.13669127103003953 -0.11971715901927342 0.24787063386154434 0.09628229387082443 -0.05096053476134245 0.09911424402421053 -0.09536259578241656 0.24089210874290518
0.10875463237566511 0.22960725025835074 0.016624718009443866 -0.0074222921823597614 0.014477442348883643 0.21976431311315808 0.2184099068006387 0.15813746660025127
0.13790542931762761 0.176908557273002 0.16035129846234342 -0.05023658168452256 0.16204166330756295 0.22557921248280366 0.039083638349872274 0.0438905123838098
00000000: 0aa8 f39d e4a9 b63f 50aa 8741 cefc b3bf
00000010: e930 e672 2938 c03f dfb6 9fd7 4c2c b43f
00000020: 2c20 2d60 2509 cb3f 42b6 f87f 7481 c83f
00000030: 11bd 3cc5 416d afbf b8bf f6a3 d797 513f
00000040: d89a bd59 737f be3f 9d98 824c d722 c23f
00000050: 825f 454a aead b1bf 514e cfdd 7068 c63f
00000060: a7b0 12f3 09c2 c3bf 26d2 959a 653b 2dbf
00000070: 7fdd 6c96 0e9e d13f 2295 d76a 987c a13f
00000080: 5d6e 0208 3131 c73f f538 cd5a 471a a3bf
00000090: dde4 a2b8 424c a83f 2468 59c7 e600 8f3f
000000a0: 5e1a 4a95 4876 933f 95fd eb09 0aed babf
000000b0: 45e6 e886 4da8 c83f e964 1f2d c262 83bf
000000c0: 8483 1ae1 82c6 c33f 6ce2 cb9c 9d2c 82bf
000000d0: 52d0 fd0e 5113 d03f c322 6fab d3ce d03f
000000e0: 2144 c1e3 e67a ce3f 7599 2744 590e ca3f
000000f0: a0ae 540f 97f3 ca3f c954 ce23 63ab bb3f
00000100: 199e f366 33ae c03f c0f9 c1d7 b2f8 b83f
00000110: bc13 b331 bd01 62bf d974 7f3c 6464 85bf
00000120: f1f8 c301 2d98 cb3f 3e1e 1ec9 3a42 84bf
00000130: 1341 49d5 d7a9 a93f 58d7 b6b4 c95b b3bf
00000140: 87a1 6725 d541 ce3f caf6 c8a7 fddc b43f
00000150: f9bc 59b0 c826 c43f 8ab1 0d50 d97f bbbf
00000160: 856a 8467 33ba b03f 477a d017 c3dd ad3f
00000170: c9d1 5c07 0cbf 8f3f aff5 0598 683b a83f
00000180: dd71 7386 e363 c73f 06ff b52d f6ca c53f
00000190: 2c24 ae52 c54f 9dbf 8d2b 185c 6834 85bf
000001a0: 4521 c75d aaf0 a2bf 8c49 54c9 e2ea cb3f
000001b0: 446a 4ed6 600e 75bf 044a b2af a075 c2bf
000001c0: 2534 caec 5fc2 cf3f ece9 577c 020d c33f
000001d0: a497 5e5b 4d7b c33f 0ac0 c3f4 c649 983f
000001e0: 43c3 25db 243d c23f 00a0 9cc1 a098 c73f
000001f0: e015 f097 1e6d c83f 38e6 e422 f111 d93f
00000200: df6a 0e57 112a bc3f 6bdd 77b8 bf07 b83f
00000210: 8729 ee92 524a c0bf 95e7 abfb 1b70 aa3f
00000220: 5786 0997 1d20 c43f 435e baf7 a63f d23f
00000230: 32d4 1104 bfd2 cb3f bea3 caa6 3764 a13f
00000240: 1384 ded7 81e9 9c3f e0f4 ce9f 8c91 d43f
00000250: 767e 9e71 469c b8bf 5d37 5913 0b70 c33f
00000260: 2165 044c 6173 953f 1ee6 a8b3 ab44 93bf
00000270: 4f30 6813 8032 cf3f 3c52 943c 1bbf d03f
00000280: 6f63 132b e149 813f bc9a 079f a709 b43f
00000290: 6dd4 a815 35a9 c73f 8392 d9e0 2d19 953f
000002a0: 511c 3953 9249 b13f 51c1 0409 85e8 983f
000002b0: 2ace e802 c7f3 c63f 114e 8e32 f658 cd3f
000002c0: e706 001b 1a61 c3bf 34a8 cc4e 66d8 d33f
000002d0: b1e0 6549 eb1a b73f 9464 29b2 edbc c33f
000002e0: 2a5d 4b7b dc68 c63f 4dc5 99f1 1659 b3bf
000002f0: 2ef6 20cd e474 c23f e007 0b51 3a63 c63f
00000300: d757 e022 0fd4 92bf 1d0c 6dda 06c2 733f
00000310: 3ea3 71f1 ace1 aabf bd48 0173 46ae c43f
00000320: cb74 ca99 8939 c13f c72d ee01 a988 b23f
00000330: 2d96 f762 b2a7 99bf b38c 8ff0 5f14 c53f
00000340: 2c81 5c7d 197f c13f e3ff c1a2 c8a5 bebf
00000350: de7c 0995 39ba cf3f d8ea 5bd7 f4a5 b83f
00000360: e28e 5fcc 7f17 aabf efd8 a614 8d5f b93f
00000370: 67ab 25de ae69 b8bf 0627 7578 8dd5 ce3f
00000380: 4b8c 57f5 57d7 bb3f 855d 6437 c563 cd3f
00000390: be85 9ff0 1106 913f 5e16 f462 d666 7ebf
000003a0: 1b6f 586b 59a6 8d3f be0f d3ac 3c21 cc3f
000003b0: 2a63 6a17 dbf4 cb3f ef01 a937 d93d c43f
000003c0: 2016 6e96 e2a6 c13f ff5e ef89 f0a4 c63f
000003d0: c829 622f 6486 c43f e9b3 cbf6 9bb8 a9bf
000003e0: 1f6a 3ffe c7bd c43f a4b2 2296 c7df cc3f
000003f0: 00f4 0a49 c502 a43f 3f17 9636 d178 a63f

weight f8 [3, 128]
0.027353497356597097 0.06533201409894743 -0.040194953501786854 -0.019077034031412848 -0.0221231359869707 0.011680698896835939 0.006845334065956812 0.07556806269887448
0.12776421070251323 0.1239759440856775 0.00898794735282326 -0.07373930752014085 -0.02276209824359719 0.009481072582456491 0.08499006581784053 0.07418802931846076
0.038112274203883544 -0.0569233073450723 0.043523173934620844 0.1382973545022378 0.3432916013646741 0.010278498054868496 0.0375136315285194 0.011004831082192834
-0.0009710119643038138 0.03616516868109043 -0.10905986542759148 0.01297549428119003 0.23078372306439915 -0.024861633437046733 0.2612617057442988 -0.020059433217914816
0.09612354247597554 -0.05730527947620005 0.019127404337948 0.029124598263135563 0.15310235520640686 -0.028622577678137084 0.05428189978910947 -0.008751594959624737
-0.02490126506762323 0.021810691545633327 -0.2144247520276137 -0.002320106400855895 -0.07515485377411618 0.08186754506841007 0.0193213124729601 0.060995850849752876
0.028144251488206158 0.10321816410817193 0.011941720174130838 0.0158685668562842 0.04059371396811952 0.07019199080115597 -0.0074031955984455895 -0.02176350388712309
-0.08426146186904417 0.062171532625988325 -0.07747248130729784 0.021564114738901585 0.030176088099168014 0.041015714311479635 -0.1873233114432282 -0.029757380296180816
0.09576887359575048 0.02589500693311283 -0.029957383811249853 0.03454557198833785 0.09154869911887185 -0.14911221294995258 0.025504220311922805 0.050243264889869174
0.05167752103465291 0.0067082437349089905 -0.0016498933877821908 0.0170792753692044 0.033232500141310614 0.009803485473926347 -0.2105391385832568 -0.15577087889955088
0.00046846779822018686 0.015910759925550615 -0.005818217805449643 0.015143664714005581 -0.007406455874427338 0.011275007467503468 -0.08078892597562479 -0.15628235365188006
-0.03538317940308664 -0.11467735385120437 -0.00789217103410123 0.04833325836132083 -0.28719568871549844 0.004641867285479496 0.004649619028896758 0.1078694314336189
0.0992215690333365 0.004929541683115869 0.022752935415456876 0.17148953883974635 0.2958011900479299 0.02106309757048912 0.036331902420589986 -0.04627163775803216
0.02955668399481446 0.004598671244207133 -0.17937158890116492 0.012715752012365139 0.03523870008897926 0.11802608931007152 0.00755766132068473 -0.08105109326511731
0.04868151903590759 0.030567538390346927 0.07936356245605816 0.047565424667744334 0.114844724349043 -0.16919096072655654 0.01765435863749176 -0.027041314573783726
0.11083212555450374 0.0433779801348132 -0.12015652368330725 0.027985359588077744 -0.15034171235316687 -0.241270740977545 0.03910808402592178 0.026781499913475844
0.007519474765630032 -0.043343982195503644 0.3317709412532606 0.13842866691585173 0.0018959395582432296 0.06318381801100242 -0.011816466746256816 -0.05801833507511204
-0.04846557897546047 -0.07690807342393018 -0.011382279216797207 -0.04244201258366332 -0.03700966030009992 0.016235049695105655 0.04142413036917066 -0.004862875752324126
0.10705344893718755 -0.04281261117922127 -0.017437161007463703 0.08597522218510956 0.0006667087635910008 0.005899942883447302 0.1303333402847607 -0.017282956259829802
0.03911826792455414 0.04910898601464033 -0.005077576921650272 0.13933483767819713 -0.04456992117900226 -0.0015322151405355003 -0.05271209027859381 0.01905118576612188
0.053041801847205264 -0.5691232829215346 0.016505118010857113 -0.014410804010719187 -0.13565803098039556 0.03125468543075521 0.027402430210277166 0.06109556668344246
0.03150407168464321 0.04436795694966315 -0.012123469132244147 -0.006576758652246809 0.09166713796870772 0.0017839777113943713 0.00820975710750724 -0.05598397348299889
-0.2033662234908236 0.13073105294302853 0.010318129439798429 -0.018167536312076113 0.039614332219205184 -0.016421972399073732 -0.0313388980300813 0.04573333894368391
0.02471755349581822 0.03540602570854057 -0.007236969432767612 0.0037572769271589073 0.051079547149775174 0.08801079712984936 0.27323452933494097 -0.07871975064307607
0.048006817674114556 0.03294054006954844 -0.021152430890069424 -0.007527232292766348 -0.040586071304206495 -0.021444251605356807 -0.09068486885761594 0.031929623701067
-0.005413969485773836 0.11196862015168382 -0.0005766583791038257 0.10360139090183232 0.0019571040460362402 0.016974367187921766 -0.04106050565461855 -0.028997746424836792
-0.05190212052437806 0.02286908869109557 0.1267791934978117 -0.021860013162049302 -0.08938378043662137 0.011974130195388507 0.012716271023698803 0.04448072745498972
-0.028457708469729896 0.1053251568362089 0.016867364255830217 0.04216896378077305 0.18559576644355244 0.00525912537634928 0.04894521094886036 -0.06821628767892046
-0.031965051493358126 0.005199389717541516 -0.006120707685017336 0.3189724869236189 0.2599079303780054 0.06320737209915778 0.0045839996285003334 0.16827016854958565
0.06089018118985875 0.04356940560047884 -0.0007678677821067712 0.0352772523863539 0.016825571319584808 0.009849423850411557 0.001002956035455234 0.14113371470392896
0.071166262328162 0.12714680446062623 -0.046218669475565674 0.010116324211511504 0.021153863510990658 -0.025544444330537753 0.12270478642217669 0.16130856495657347
0.015643714106882423 0.1993839936709416 -0.15004137425362357 -0.0038896650644022384 -0.0034568801451121244 -0.291514164937327 -0.0075792295964109725 0.005671668605788712
00000000: a2ac 4f22 8e02 9c3f 7ad1 ef4f 99b9 b03f
00000010: b642 82d5 6e94 a4bf 4b11 1415 ee88 93bf
00000020: 042d 3286 72a7 96bf a6f8 0cde 0cec 873f
00000030: a97d 185f da09 7c3f 16eb e9b5 6d58 b33f
00000040: a184 48e1 935a c03f aab5 5631 e3bc bf3f
00000050: 3c24 82df 4568 823f 8c8b 3a4a 94e0 b2bf
00000060: bba8 2d8e f24e 97bf d797 6105 d06a 833f
00000070: c929 2cb1 e8c1 b53f 356f ad97 fcfd b23f
00000080: 8350 90b6 7383 a33f 7bbf da3e 0d25 adbf
00000090: 77aa 5561 ab48 a63f 5cef 5a4b bab3 c13f
000000a0: 5d93 3656 7df8 d53f 1035 fba7 e40c 853f
000000b0: 426c 2399 fc34 a33f 73a7 c46c b389 863f
000000c0: 9817 bb50 70d1 4fbf c0ad 7ab1 3d84 a23f
000000d0: 9752 51eb 58eb bbbf b679 b25c e592 8a3f
000000e0: 1e5f 812f 528a cd3f 6226 26fa 5375 99bf
000000f0: b19c 7704 83b8 d03f 21c6 96c6 758a 94bf
00000100: f85a 4f6f 8d9b b83f 1612 7a1a 1e57 adbf
00000110: dbfc 5a60 2296 933f 2e7d 32b4 d6d2 9d3f
00000120: faaa 46a4 db98 c33f 5022 38ac 3c4f 9dbf
00000130: 80cb b750 d6ca ab3f bd8b 1d31 5bec 81bf
00000140: 7bbc 609c b77f 99bf c509 91bb 8a55 963f
00000150: 61ac b430 4572 cbbf 0665 ada3 9d01 63bf
00000160: 1c72 1837 593d b3bf 4e31 ac7c 45f5 b43f
00000170: 01a7 bf54 f7c8 933f adc9 2e21 d93a af3f
00000180: b256 d9be d8d1 9c3f 5da0 326f 816c ba3f
00000190: 30d5 d88c e674 883f 5580 ba7e d93f 903f
000001a0: f21e d503 b3c8 a43f f59d ee30 1af8 b13f
000001b0: 740e b32f d052 7ebf f928 c405 2c49 96bf
000001c0: 096b 0abf 2892 b5bf b5db bd76 f2d4 af3f
000001d0: 6408 8e8d 3cd5 b3bf f378 483e e714 963f
000001e0: 1550 07fe 7ae6 9e3f 4d05 2eff 0200 a53f
000001f0: cfaa 36d4 35fa c7bf 8436 bffc b778 9ebf
00000200: a089 1114 4f84 b83f d730 a17f 3884 9a3f
00000210: f1de f8fe 25ad 9ebf 60b3 d20b f5af a13f
00000220: 4ff7 b44c bc6f b73f 24f1 06e7 1b16 c3bf
00000230: a547 9940 c71d 9a3f 7eae 1737 7cb9 a93f
00000240: ba7a 90dd 7975 aa3f 98ce 4777 1a7a 7b3f
00000250: ae43 1d89 2708 5bbf c2b6 99c4 3a7d 913f
00000260: 8ee0 8aaa d903 a13f 6285 fa8b d913 843f
00000270: e41d 5f4d f2f2 cabf c078 45d7 4cf0 c3bf
00000280: 2ab8 61df 95b3 3e3f cb94 2306 e94a 903f
00000290: 6667 20f3 d7d4 77bf a285 8145 a403 8f3f
000002a0: fbae 285c 3b56 7ebf 1740 aee2 5917 873f
000002b0: e6bb f142 95ae b4bf b938 f066 0f01 c4bf
000002c0: 8dc1 ba7c be1d a2bf 68fb 61bc 7e5b bdbf
000002d0: 4321 e343 c529 80bf cd25 f107 23bf a83f
000002e0: ef74 a506 6a61 d2bf c1a4 efc2 5903 733f
000002f0: 3502 b09a 7a0b 733f 96d9 3ec0 549d bb3f
00000300: 2355 0eb2 9566 b93f f513 03c5 ff30 743f
00000310: 2353 fda5 8b4c 973f 5f1f 7684 5ef3 c53f
00000320: 59eb 571d 68ee d23f cdee de8c 9091 953f
00000330: c952 6559 189a a23f 0764 ce85 eab0 a7bf
00000340: 7a32 8b7c 1b44 9e3f a932 9569 0ed6 723f
00000350: 61be 14f2 a5f5 c6bf a317 4c58 b70a 8a3f
00000360: 7516 df90 ce0a a23f 305a a931 f536 be3f
00000370: 292c 4e43 c8f4 7e3f 1af4 e0b2 c3bf b4bf
00000380: e48e 5bb8 c8ec a83f f0b3 d2c6 184d 9f3f
00000390: aa29 3ea1 2b51 b43f 9993 bcce 7e5a a83f
000003a0: 9680 32bf 7666 bd3f 82b8 8ca5 0ca8 c5bf
000003b0: 3f66 ebf3 fb13 923f 30e5 f0e6 b7b0 9bbf
000003c0: 714e 9a82 7e5f bc3f b053 177c a335 a63f
000003d0: 4bf0 9ef3 93c2 bebf 1156 cab0 31a8 9c3f
000003e0: e507 e4b0 653e c3bf 9978 fdaa f5e1 cebf
000003f0: 6c15 cd8b f905 a43f 3298 1009 9c6c 9b3f
00000400: 4341 39a3 bdcc 7e3f f424 04b4 2e31 a6bf
00000410: 7d89 9c2f bc3b d53f 43c1 9dd2 07b8 c13f
00000420: c454 7699 2510 5f3f 3c61 fe8f d02c b03f
00000430: 07e7 d551 3b33 88bf 6594 6e47 94b4 adbf
00000440: 64d4 5cf9 7ad0 a8bf 2b76 275c 3fb0 b3bf
00000450: 6cb1 eba7 974f 87bf 01e8 0ba0 f5ba a5bf
00000460: d4ff 3f21 eef2 a2bf d428 f5bd eb9f 903f
00000470: fbd2 662a 8b35 a53f f4c3 2145 18eb 73bf
00000480: 44f6 1bd6 da67 bb3f 5b03 bed9 88eb a5bf
00000490: 386f 0c11 0cdb 91bf 3027 8ddf 7802 b63f
000004a0: 9a48 f42a c2d8 453f 7b08 b9db 892a 783f
000004b0: 83fd 0c4d c3ae c03f 851b a88f 9fb2 91bf
000004c0: 2802 d342 4f07 a43f a3c5 be21 d024 a93f
000004d0: 3281 24ad 39cc 74bf c9ba 8255 b9d5 c13f
000004e0: dfbe b263 ded1 a6bf 727c d17a 931a 59bf
000004f0: 6162 b33f 14fd aabf 2616 436f 2782 933f
00000500: aa62 8288 4b28 ab3f e148 f107 4236 e2bf
00000510: 8a02 4bb8 b7e6 903f 1718 7b5f 6983 8dbf
00000520: 2512 400b 3e5d c1bf 6731 8b37 9d00 a03f
00000530: 9114 56f6 610f 9c3f 9804 ac09 eb47 af3f
00000540: 921b 273b 4d21 a03f a5a3 2d98 65b7 a63f
00000550: 3a16 7f7b 30d4 88bf 6a8c 3335 3bf0 7abf
00000560: 7f8a b15f 7f77 b73f d8c3 577b 8b3a 5d3f
00000570: f25d 47f2 46d0 803f 3152 6b6e eea9 acbf
00000580: d186 8087 e707 cabf 3f21 7b8e cbbb c03f
00000590: 60a6 ffe3 ab21 853f 7cae 3cb9 829a 92bf
000005a0: f031 ab6a 5448 a43f 4231 8fe9 ebd0 90bf
000005b0: 8485 43ec a60b a0bf ee33 3336 5c6a a73f
000005c0: 4f4f 9bef 8e4f 993f b0c0 ff14 bd20 a23f
000005d0: e3ff 9230 83a4 7dbf 3cf1 c5b0 94c7 6e3f
000005e0: a56b 0131 1927 aa3f 9e1a 5e27 e087 b63f
000005f0: e46a e8ad ac7c d13f 7cb0 8f42 fa26 b4bf
00000600: 356c ca7f 5994 a83f 2861 9f1c 95dd a03f
00000610: 3570 9d9b fba8 95bf b0e1 6d08 e0d4 7ebf
00000620: 1871 d991 b2c7 a4bf 052d 545d 7bf5 95bf
00000630: 574a fca1 1f37 b7bf b0ab 2363 1459 a03f
00000640: 4986 205e f52c 76bf 7ecf bab9 f9a9 bc3f
00000650: 8220 8a70 5ce5 42bf d254 bee9 9e85 ba3f
00000660: 344c ec3b 5808 603f 9c09 c57f ba61 913f
00000670: 083b e3f1 e105 a5bf c7a1 35d2 95b1 9dbf
00000680: f391 7d2c ea92 aabf 3500 1290 fe6a 973f
00000690: 2674 f1f4 4c3a c03f d809 7ca6 7862 96bf
000006a0: 64a4 c4fd dae1 b6bf beaa b28c e485 883f
000006b0: 1510 6401 fd0a 8a3f 8964 718b 2dc6 a63f
000006c0: 714f c97c 0424 9dbf 17be 0ee8 96f6 ba3f
000006d0: d9df 64a7 ad45 913f 2e73 b0a0 2b97 a53f
000006e0: a357 9321 9ac1 c73f 56a5 f3b7 978a 753f
000006f0: 3b71 a4c0 580f a93f 8caf a264 9f76 b1bf
00000700: cccf 8e25 b95d a0bf f669 bc8c f44b 753f
00000710: ce4f 5ef5 0612 79bf 6a49 ea93 0b6a d43f
00000720: f873 3cdf 54a2 d03f 3430 08bc 5b2e b03f
00000730: 981c d407 acc6 723f 640c 687b e089 c53f
00000740: 3b46 b771 ff2c af3f d007 52a8 ba4e a63f
00000750: e9ae 8281 5729 49bf cc91 952a dc0f a23f
00000760: 766e 37fa b83a 913f c85f 934a ef2b 843f
00000770: ba64 c8d7 b36e 503f 6318 8268 ab10 c23f
00000780: d62b 47c1 f337 b23f 8d82 79b3 5846 c03f
00000790: b670 b933 f9a9 a7bf 2b45 270d deb7 843f
000007a0: f7e1 dabf 5ba9 953f 0d03 faa3 5228 9abf
000007b0: 34f4 beb4 9469 bf3f 6ece 8651 c2a5 c43f
000007c0: 907b e8e1 e704 903f efce 142a 6a85 c93f
000007d0: c2ac bb45 8e34 c3bf eadb ce07 38dd 6fbf
000007e0: dc1e 6c65 9a51 6cbf 1d80 2e07 2ba8 d2bf
000007f0: e467 edf3 650b 7fbf fc4e cff2 2c3b 773f

bias f8 [3]
0.3851590451820397 0.34625544313817697 0.4288382037798363
00000000: 4830 b41f 72a6 d83f 0fca 1597 0c29 d63f
00000010: 3ea0 20cb 1572 db3f
