scheduling/decoder.pt (torch, 76036 bytes, 10 tensors)

weight f8 [2]
00000000: b0e5 7a76 7068 f13f a49f 5d53 ead6 f43f
1.0879978778960826 1.3024695641015365

bias f8 [2]
00000000: cd75 be0c 59dd ab3f 4a02 3f7b ee65 b5bf
0.05442312508169387 -0.08358660229624451

running_mean f8 [2]
00000000: e639 37cf ce6f 993f 5449 3073 1b6c 7b3f
0.024840575597233093 0.006694895960224951

running_var f8 [2]
00000000: c84e 19b2 9c62 643f 4969 5bf4 de40 673f
0.002488428159986931 0.0028385500507798517

weight f8 [64, 2]
00000000: 52ee 9bc7 2f5e c7bf e292 e5cb c08c ea3f
00000010: 70cb 1d3f 5b79 e23f f352 8c6e 251c e33f
00000020: da37 a84d 7aee b93f 11a9 d628 f522 e4bf
00000030: 9aaa d9f0 71be c53f 731b f6cd ebc4 dfbf
00000040: 25a9 a414 9720 e73f e898 726d 3337 d13f
00000050: e23c 0ef4 a972 c03f b129 5fe8 914b e0bf
00000060: 2e2f 697d 3a4d a2bf efb5 bd8c 681e d83f
00000070: 7c00 7985 9d6c e13f 8d1e 013f 5510 c53f
00000080: 1ce7 7057 63f7 e13f 5ff5 6df5 d40a d23f
00000090: 0dc5 9f14 0dbc d0bf a58b ebe0 7c3c f23f
000000a0: 086a 59f7 23b1 e53f fe10 e41e 053d c93f
000000b0: 311e 1ca9 f3ff d1bf 55bc a056 d620 f53f
000000c0: dfab 2b88 7728 c2bf 895e ab06 caaf e63f
000000d0: 783c 5912 fafa d73f e56c f605 a270 e4bf
000000e0: 58cb 3025 f973 e23f f3fe bfbf 1f8c c23f
000000f0: f5cf ccae 025d debf 5181 7819 d4d2 c1bf
00000100: bf37 4560 9afe cbbf 152d 2038 342e ee3f
00000110: 7c89 4854 89bd e23f dddd 77db 6670 c53f
00000120: 53a8 0c33 97fb d93f f32f 1fd1 e689 b63f
00000130: cafe 02d6 accc 87bf ab85 cc6a 4eed c1bf
00000140: 3fa5 4024 50a0 dfbf 5dd7 3583 f3e8 db3f
00000150: 3c29 befa d378 ea3f e5f2 f996 322d bf3f
00000160: c357 2bad 0563 d3bf 41fb 62c8 9c3b bcbf
00000170: 8a69 8d05 d463 c4bf a558 14b3 1c41 eb3f
00000180: b26a cb90 d3c7 e43f a9eb 451e cb00 e03f
00000190: c735 75b7 2a0b be3f 3e17 e1df 63b9 d2bf
000001a0: 28e2 1f76 7ebf e43f 3779 d69e 89de d03f
000001b0: 130b 7493 000b ce3f eb1d 0b41 b5c3 eabf
000001c0: 201e 4675 8834 d03f 88e5 70d4 6f98 d23f
000001d0: c057 8892 cd13 c93f 48c8 3c78 a741 e6bf
000001e0: 3d77 3796 ab7c c3bf d894 dd15 9baf e73f
000001f0: a92c 8a35 4d30 c53f ebf9 51c8 1425 e3bf
00000200: 258b ff05 6370 c23f 0e9c f928 ec67 e7bf
00000210: 0a82 68f8 f65f b93f 8ad9 eb2d 1bbd e3bf
00000220: 0c70 f32c df3b e63f a443 0f94 1267 d43f
00000230: 6458 6d90 65ba de3f 2f6f aadd 9fc4 c03f
00000240: bae3 09c8 6cb0 e43f 6bfd 946b dafd c93f
00000250: b4b7 316d 3c44 e33f cdf7 314d 3e03 c03f
00000260: 35b0 0527 6706 c43f 79e4 3e71 b618 e4bf
00000270: c84b 939b 19ff d5bf e4c3 94e0 7709 bebf
00000280: 22eb a4a1 5fd0 cfbf ccef 80c1 0044 debf
00000290: aa2f e31a 27d3 b2bf 3227 631e defa dabf
000002a0: 5115 8f53 03ad c23f 1ef3 f793 0e00 d3bf
000002b0: 7041 24a4 0c57 e9bf 35d4 af9d 519d ccbf
000002c0: d191 365c 0f7e debf 4899 32ff d4d4 cc3f
000002d0: 2d6b 7b86 dc52 d03f 9d25 8c7e 36b4 e43f
000002e0: 4b39 3a92 3e1c d8bf e365 c1f0 ea2e c0bf
000002f0: abc5 65b0 d942 c83f 43fb f45d 2b91 e43f
00000300: 8d9a f06b e0bf dabf 2d90 7756 21fb c0bf
00000310: aaad db45 b2d2 c53f 81d8 2fd6 68e5 dabf
00000320: eb58 b82b 39a9 ca3f e41a f4be 9e00 ebbf
00000330: 0306 8c74 1967 a3bf b950 088b 6fd5 d13f
00000340: fe30 cce3 0fbb e3bf cd5a a8cf bb40 b7bf
00000350: 6121 f861 baa2 c93f 1c16 4844 dfb0 e8bf
00000360: 5c12 eb8c b62a eabf fe00 e073 d7aa cbbf
00000370: e504 ee19 a146 e4bf 05da 2521 52c4 cbbf
00000380: fb64 0288 9413 aa3f d4ca a908 137b e33f
00000390: 0000 0000 c004 5fbf 0000 0000 6cce 9f3f
000003a0: 39b3 e09a 010f c9bf 86bb 73ec b789 ed3f
000003b0: acde 951c eded e3bf f6c7 c767 2b85 bdbf
000003c0: 0000 0000 d460 acbf 0000 0000 ec15 a5bf
000003d0: 0d9f 54c4 a025 e7bf f62f 2b4d 798d d1bf
000003e0: 8beb 1477 0b34 c2bf e8ac eb10 58cd ef3f
000003f0: 70e3 d0aa 204c bb3f 26c3 2995 12ff e1bf
-0.1825618481305918 0.8296817762717092 0.5773140175573257 0.5971858176368116 0.1012951316444907 -0.6292672917964258 0.1698744226481111 -0.4963941108075495
0.7227282908618561 0.2689941948723473 0.12849926392343664 -0.509224847651515 -0.035745456513352244 0.37685598129505044 0.5445087057960474 0.16456094337830898
0.5614487369377659 0.28191112487532693 -0.2614777280242187 1.1397675310078992 0.6778735953369628 0.1971746826967617 -0.28124705805427924 1.3205169090176885
-0.14185995243982938 0.7089586382162035 0.37469341079572116 -0.6387491337258352 0.5766568876627884 0.14490124571602045 -0.4744269091636391 -0.13924647563636453
-0.21870736790373077 0.9431401344494669 0.5856367727431429 0.16749273029539227 0.4059808729676934 0.08804171185983005 -0.011620855599516661 -0.14005451407233002
-0.49415973224911974 0.4360932141638523 0.8272495171852721 0.12178341089197493 -0.3029188338381312 -0.1102846135354243 -0.1592965151892936 0.85169825531445
0.6493928745288342 0.5000968543312087 0.11735789278937779 -0.2925653158493907 0.6483757311935436 0.26358261596205373 0.2347107620226657 -0.8363901396159553
0.25320636227158566 0.29055400606338155 0.19591684012328692 -0.6955144260775876 -0.15224213442609794 0.7401862551747866 0.1655365477966815 -0.5982765114311496
0.14405477326280294 -0.7314358520787907 0.09912055554060131 -0.6168342492008361 0.6948085668514081 0.3187910505194458 0.4801267538472358 0.13100050281070127
0.6465362460140718 0.2030594849875159 0.6020795948695565 0.12509897965713748 0.1564454021967109 -0.6280166827992978 -0.3436950701990864 -0.11733197434365611
-0.24854655640395956 -0.4729005708393259 -0.07353443533355511 -0.4215617462874547 0.14590493755364745 -0.29687847566656156 -0.7918761449709972 -0.2235509891467317
-0.4764440918463864 0.22524511776755163 0.2550574601461218 0.6469986411695349 -0.37672390251181714 -0.12643181567800274 0.18954011071359153 0.6427208743187766
-0.41796122113229545 -0.13266388628028505 0.1704924431900115 -0.42025204579056924 0.2082892859913906 -0.8438256959496724 -0.03789596126263108 0.2786520822276191
-0.6165847253010097 -0.09083150691763393 0.20027856620459786 -0.7715908368706468 -0.8177139999684857 -0.21615117223701213 -0.6336217409554165 -0.21692873590991738
0.05093063507337977 0.6087737244800686 -0.0018932223320007324 0.031060874462127686 -0.19577045500172988 0.9230613344387713 -0.6227937277135047 -0.11531325610829399
-0.05542623996734619 -0.041182875633239746 -0.7233432612019627 -0.2742598775482742 -0.14221328081643167 0.9938164072495086 0.10663036508857515 -0.5623867905943356

bias f8 [64]
00000000: a522 1a9a ea00 91bf ec90 945d f965 e3bf
00000010: e3a1 36b3 3ca7 babf 7d6e 1e13 dd24 cf3f
00000020: d7d5 fab2 02df ba3f 117d 663c eea3 b23f
00000030: 1b08 4cd5 b718 d53f b7a9 3403 0731 d93f
00000040: 605f 39f8 033d b63f 1fea bf4b 1983 c3bf
00000050: 330f e539 13ee b23f eefc cd59 8664 d5bf
00000060: b8a9 b1ae 3bfb b63f f834 966b 7370 e2bf
00000070: fd03 6786 747e d03f 1cfd 0926 2605 b2bf
00000080: ac02 db97 70cf c43f f7ee 88f8 eb24 d23f
00000090: eb37 f826 e0c5 cd3f 2141 8786 b322 ba3f
000000a0: 4a1e 86c5 1915 e5bf a619 b72b c987 cebf
000000b0: 1360 fbf0 2861 ca3f 5520 89ef 1238 a63f
000000c0: be35 240f 9068 bc3f 0db7 b3e2 fa2b ddbf
000000d0: 3398 45de 60f4 9d3f 7044 a749 57cc c43f
000000e0: 0832 f512 5a4b e5bf 8d6e aaae 8eb8 cc3f
000000f0: 689b 26c9 7a2e 5a3f 783a fd56 ad37 c33f
00000100: 5f18 0b77 0a46 dabf 755b e884 d3bb b9bf
00000110: 2336 8cb0 7295 c8bf 4ca3 30d0 daee d23f
00000120: d7ae 9766 6863 b53f b0cb 043a 62dc 8cbf
00000130: 077a 9c31 2808 c8bf 12bf 1885 268a d03f
00000140: 8718 9114 eb38 a6bf f7ff 0fc8 f8cd dcbf
00000150: 0ac3 b826 b1a4 cf3f 407d ebc4 acfb bcbf
00000160: 2301 f765 8e56 e8bf bb2e 5085 f883 e2bf
00000170: a3bd e0aa 64a9 d23f fc5d 354a 2f0f d8bf
00000180: 92b4 07fd c6d0 d4bf 9280 363c 2813 d23f
00000190: 4bab 3842 e8e0 be3f 19b4 3a0e 7b65 de3f
000001a0: 9972 0ffa ea85 613f b503 5c77 2fb3 be3f
000001b0: 66be 36e9 9380 b5bf a4e9 5737 bf6f bcbf
000001c0: 40d2 b15d b56f d4bf 0000 0040 88c9 e4bf
000001d0: 0e9f 1e34 5b10 b43f 6fef 7708 5a74 a33f
000001e0: 0000 0040 ca72 e4bf 00f6 2d6c 4b26 e4bf
000001f0: f532 7311 2e83 ba3f 16ce a915 f9c8 c0bf
-0.016605058341641627 -0.6061980083218521 -0.10411433577849709 0.24331248696840993 0.10496537084221501 0.07281388258569545 0.32963367299828555 0.3936173945718581
0.08686852274092649 -0.15243831824030082 0.0739452377648007 -0.33426054735168875 0.08977101340284477 -0.5762269116691234 0.2577182114146693 -0.0703910677784631
0.16258056082553674 0.2835035254572484 0.23260118391811999 0.10209199938185921 -0.6588257654083887 -0.23851885447056737 0.20609008566566497 0.043396560421172715
0.11097050065674005 -0.45580932749622677 0.029252542082211796 0.1624859914432224 -0.6654482240933826 0.2243822434291939 0.0015979956702751544 0.15013663051145776
-0.4105249559910415 -0.10052225107970776 -0.19206079121106354 0.29582853632978323 0.08354809288692465 -0.014092223544684618 -0.1877489320986145 0.25843203542443505
-0.04340300203379948 -0.45007152116158927 0.2472135008879593 -0.11321525390257126 -0.7605659476758188 -0.578609714867944 0.2915889424066 -0.37592680212898677
-0.3252427550313054 0.2824192607895465 0.12061931244595063 0.47494388951855765 0.0021390523329343878 0.11992165245102522 -0.0839931911821111 -0.1110801229587311
-0.3193181433664769 -0.6496011018753052 0.07837457678271795 0.03799706796050272 -0.6390124559402466 -0.6296746361619512 0.10356414724374104 -0.13113320882585872

weight f8 [128, 64]
00000000: e48d 056c 27d2 a43f ee6e 4a78 e282 8cbf
00000010: 22da b125 3818 ae3f 3cc2 e708 79f6 a73f
00000020: b457 26db f2e4 c6bf 2f86 6716 55e6 a1bf
00000030: 8e1f 57c8 f9e7 b33f d942 2921 ed4f aabf
00000040: 01d5 e051 2761 a1bf 85c1 ee57 ddd9 b83f
00000050: 08b8 1292 e20a cebf 7983 9caf 96c0 b2bf
00000060: 596a e758 5e82 7bbf 1dfa c85a b9de babf
00000070: 5147 6e69 5156 b9bf 01b7 69ee e517 ad3f
00000080: 0933 6528 eb60 a43f a6d9 e8c8 dd2a b8bf
00000090: 388c 0bc9 164b a33f 4033 3ec6 1c2f 85bf
000000a0: c414 2b26 9cab a63f 9722 70bc eb7a c2bf
000000b0: 7d56 58a2 7c02 adbf a9f0 5eb7 e1ff 7bbf
000000c0: 547c f387 e9e3 a7bf 34c8 ca73 311b b8bf
000000d0: 2ec1 a285 a8ef bdbf ef6f ae53 1532 ba3f
000000e0: 7c8e 303d a7b8 e2bf 0098 2992 286f 99bf
000000f0: c1f4 9e9d 0559 a9bf bf11 791d 0c57 8d3f
00000100: 4792 85b1 941a b3bf 155e 63f2 80e8 9e3f
00000110: 7af1 8792 6920 d6bf 8836 f1d0 8e3c b8bf
00000120: 41c4 c7c6 33ff d0bf 21cb a6c2 2fda c1bf
00000130: 16a0 1072 15fc a1bf 5c34 ba72 33d1 8c3f
00000140: b50c 5d1f 97f6 aebf 5497 aacd 4502 6bbf
00000150: 8de3 bcae 73a4 a8bf 8ee7 f370 498a a4bf
00000160: 470a fa19 8fe2 9cbf 43ad fdd2 fb90 6e3f
00000170: d7e6 c360 87bf 9a3f f8f3 a2b5 f706 a13f
00000180: 4d9e 68a6 2fdc 9f3f cb83 2f83 7723 a43f
00000190: fe34 0d8f 9da3 a83f de89 290e 0afd ab3f
000001a0: 7a60 9a7f 59ea b53f e8ee 5bd0 4df2 bb3f
000001b0: 4fec 0e47 5296 c03f 8d25 e3f4 8413 b43f
000001c0: ce94 ebd0 adeb b73f 0000 0000 40c7 4c3f
000001d0: 077f 27ad 1391 a13f 1bb1 7c5d af26 aa3f
000001e0: 0000 0000 2a6f b7bf 4bab 0e39 bfa5 8e3f
000001f0: 7793 75c6 1d1d 953f c1c8 299e 456f a63f
00000200: b91b c8c2 4e13 d3bf 3556 f332 e281 8cbf
00000210: 510d e03c b0e4 80bf 72fe 3a0f 75b1 a13f
00000220: 932d 5481 e9f5 b53f 0a31 7df1 e53d 9cbf
00000230: 3750 bb65 c6c9 abbf fd66 eec3 62b6 b03f
00000240: ee3a b39f ef7f a0bf e3fc f76c 4014 e6bf
00000250: a69f 307b d916 a6bf aabd f9ac 3760 bfbf
00000260: 9d74 e9bc 4e01 b0bf f3e6 e83c ad75 b1bf
00000270: 3aa9 f124 ceb4 9c3f 1a16 ffce 5529 a93f
00000280: 08b5 6d0e e9cf aa3f c89a 0a7a 7b1b a1bf
00000290: d2a1 74df 44fb 90bf 6af5 43d5 2f00 9c3f
000002a0: a99f d848 3289 9b3f 7771 1c20 7822 93bf
000002b0: 2061 a12a 12ca b0bf d451 bc67 a3be bebf
000002c0: a68d 95da 60be 7f3f a45f be33 3495 d3bf
000002d0: d702 b069 06b0 963f 77d2 a808 c646 333f
000002e0: 7b1e 1647 877c a4bf c811 0886 ec84 5f3f
000002f0: 7679 6075 f63f cabf ef9e 6cad 29de 97bf
00000300: b15e d751 6186 a3bf adb4 6e8f ee01 71bf
00000310: 4720 8538 9c5f 83bf 34e7 132f 1a59 b93f
00000320: f5e1 db17 d37c 993f 9561 7b37 62f4 9b3f
00000330: b3a5 79b5 4221 a0bf 440d 2e3c 2a58 b13f
00000340: 2420 0dde 5d69 a6bf 8af5 f73a 17d4 c1bf
00000350: 9c91 5fb0 93d5 a0bf eee5 1517 b4a7 abbf
00000360: 68b1 1b49 3b3e 94bf 7273 53b2 bb3f 983f
00000370: 32dc 4217 7712 b23f 71e4 3ad5 e6a3 b2bf
00000380: 0bcb 2d58 d684 bbbf a949 59b1 4924 973f
00000390: 31a6 966a 0e70 703f 3902 f373 34f7 b03f
000003a0: ee61 35ec 1194 aa3f f56e 2089 7bfc 903f
000003b0: 0eea 2a4d 1ef2 ac3f fd7c 7116 1503 b43f
000003c0: 5599 2591 4e6d aa3f 0000 0000 19f5 bcbf
000003d0: 4317 e669 1a31 c3bf 325c 1b28 6cd3 46bf
000003e0: 0000 0080 e6ad bd3f f8d7 b35c de21 843f
000003f0: ba4b 0edb c1c9 c0bf 5985 8ab2 f735 95bf
00000400: 9a94 e69a 0ab3 95bf 3b40 2c80 a8b5 a1bf
00000410: 54ce 3a3b 3426 b8bf 932e b4cd 5ea0 9e3f
00000420: bbb0 396e 47fc a3bf d5cb b732 d84d 95bf
00000430: 4ad0 edd5 2652 a43f fcd0 7d22 39a2 b23f
00000440: 21be 5bbb a668 bebf 71ce 5f2e 9ed2 a7bf
00000450: 959f 5d84 6910 afbf 8833 56b0 9f27 aabf
00000460: 4b9b 4eb3 6e47 933f f5da ffc3 208c c6bf
00000470: 246b abdb a1f5 933f cc9e ceed 42ca 993f
00000480: 41d5 25ca cc9c 783f ee13 0480 0828 913f
00000490: c781 5816 9215 a83f f6d7 348d c3ff 9e3f
000004a0: 9d44 f451 ff35 b6bf 3392 6b3c e64f d0bf
000004b0: 8b4e 3bad e618 a93f 9172 c476 07d6 9abf
000004c0: 4cb4 a968 bc26 aebf ed59 216e 3127 98bf
000004d0: d5d6 eff4 f44c ccbf 2d2a 5fe2 5f5a 92bf
000004e0: 018e 01a8 308a c1bf 8333 3f7f c073 6ebf
000004f0: e79b 9748 fbac a5bf b870 8dad 0f2b 97bf
00000500: d561 9e0e 247d dcbf cbe8 b0ba 42e2 bfbf
00000510: eb28 7240 5100 fcbf 4e2d a4ad 0fbd 9b3f
00000520: 53ef e183 c0cb b3bf 98b2 6187 867f d6bf
00000530: d2d9 11dd 57e2 d6bf 7997 686d 9237 a93f
00000540: 33f9 4a14 f0f2 aabf 6ecf 790f f968 c2bf
00000550: 2981 0929 ca5b 83bf 4f42 fcb4 8c17 97bf
00000560: 425f dcc2 3400 c1bf 95d5 799c dfee c6bf
00000570: 4620 fcf5 97a7 9d3f 93ef 7468 5b7b ddbf
00000580: 1f9b 0db0 c59a 6fbf 3f6d e9ec 205b 883f
00000590: def1 cd34 75a4 9fbf b2cf e324 48ea 753f
000005a0: d579 59fc e226 933f 46be d8be 27d0 a4bf
000005b0: 1753 02ea a7dc 8f3f 2600 2fce 7a14 a03f
000005c0: e3fd c706 b2fd f1bf 0000 0080 35e6 bd3f
000005d0: 75c2 a6dc ab4e 653f f31d 07b7 b8ba 8e3f
000005e0: 0000 00c0 0fea b1bf d6b7 e4f7 3d42 a03f
000005f0: af9a d4e4 4366 97bf 0849 73b2 2fc6 cbbf
00000600: 6fb9 eb63 d48a 953f 94f5 eafe 40d2 a1bf
00000610: f2ea eac8 d8d7 7abf c1d5 b7e1 233a bbbf
00000620: a7a8 8e28 9113 8abf 08ed 9dca bae4 afbf
00000630: 9b10 a090 9417 b43f a3eb dc75 6a74 a03f
00000640: 1660 6a79 aff9 953f c2c9 9785 95f8 773f
00000650: fc3f 93c7 e3c3 61bf abe4 8eaf 81c2 6e3f
00000660: 3006 24d6 7708 7e3f 8ad1 0044 65b4 c4bf
00000670: e719 beb5 93c8 793f c4de 86a7 2ad0 d3bf
00000680: 0f5b 9612 9592 643f 073d 1e37 6864 933f
00000690: ace3 029d a07b b03f 6a9c f2d9 964f c2bf
000006a0: 6974 fc15 9898 c4bf 93a1 11ea 8645 94bf
000006b0: cba5 16a5 0810 b3bf 29a9 2e5f e477 603f
000006c0: a5af 77bf 4a8c 60bf 0e81 b38c c953 b0bf
000006d0: 38a3 0347 2498 7d3f ad34 22a4 e6f5 a8bf
000006e0: 44de 97ea 3d22 ccbf 959e 7aaa f0b8 bbbf
000006f0: c9d4 17ff b9dc 8c3f 2130 c173 85f0 acbf
00000700: 9ee6 8538 ce8b 91bf d5ed 4664 e0e5 9fbf
00000710: 9d7d 2a15 c404 853f e8c0 1a74 1d76 a4bf
00000720: 93e6 8bd5 cd35 793f 0268 fd5a 58cf 823f
00000730: 114a 8122 2579 bebf db3b 8f73 fecd b9bf
00000740: 52ce ea6c fcea c3bf 51ef 3a6c c8b1 a5bf
00000750: 0c7f 885c 0318 bcbf 3c2a deb3 5b77 cfbf
00000760: a020 2dbe 40b7 e2bf e6f0 9f2e 959b 92bf
00000770: d7bc fcd5 78ce a0bf de2d e6fa 20b5 83bf
00000780: b1c6 c1b4 3419 d7bf e32a ae8e 4d32 b2bf
00000790: be12 da56 6e03 bebf eb84 d2be 0905 ab3f
000007a0: 06ae 4100 99b7 c2bf 5da0 aac7 e97b abbf
000007b0: 136f bf4c a4d8 d4bf 151c bb61 be5f e0bf
000007c0: e8f5 f41d 229e 5b3f 0000 0000 3b27 a3bf
000007d0: d6dd a61f d326 7c3f d0fe 4981 ee8e babf
000007e0: 0000 0040 48bb bf3f b9b9 d28b 7fc0 d9bf
000007f0: 15c5 752c 812a 7a3f d74d b118 0922 95bf
0.04066584771751616 -0.013921517654402273 0.05877852878704838 0.04680231317241065 -0.17886195851013797 -0.03496042154780487 0.07775841847535345 -0.05139103917884364
-0.033944348091987216 0.09707435032647112 -0.23470718510128585 -0.0732511690844272 -0.006716126007143852 -0.1049609991687039 -0.09897335838311717 0.05682295356096568
0.03980193012339412 -0.0944040885450251 0.037682258645667266 -0.010343766021628675 0.04427803007050948 -0.14437624646258904 -0.05665959817649211 -0.006835824684397953
-0.04666070732650299 -0.09416493489223471 -0.11693814528075983 0.10232671063425845 -0.5850406832800696 -0.024838098450707946 -0.04950730847438357 0.014326185845796922
-0.07462434133555816 0.03018380622310531 -0.3457282954184603 -0.09467403985146394 -0.26557630931990067 -0.13947102550954418 -0.03512637154955216 0.014070894182873932
-0.060475084856557094 -0.0032969821307515055 -0.048129668312362296 -0.040117545164277776 -0.02820800396012604 0.0037312429848747343 0.026121249466973886 0.03325628368609296
0.031113380939272784 0.03933309055697228 0.04812328692660549 0.054664911488334175 0.08560714116390669 0.10916601502315937 0.1295874449695895 0.07842284182256361
0.09343992567626744 0.0008782446384429932 0.034309973608968085 0.05107639328193355 -0.09153997898101807 0.014964574745894096 0.020618882406228303 0.0438176875658356
-0.2980534460224891 -0.013919608287703425 -0.008248688562167901 0.03455701647680777 0.08578357131425766 -0.02757987295562806 -0.05427379600374176 0.06528298648336413
-0.032226074452060036 -0.6899721267981501 -0.04314307812484168 -0.12256191227947136 -0.06251995193584255 -0.06820185410552053 0.028033467297441585 0.049143487470740335
0.052367480288788626 -0.03341279854548912 -0.016583515299460512 0.027344462768259893 0.026890550323656424 -0.0186861772154869 -0.0655833581998917 -0.1200964096318054
0.007749918303804481 -0.3059816842373897 0.022155857277541848 0.0002941354256649551 -0.040012576510943774 0.0019237813759228495 -0.20507698756496112 -0.023308421335200554
-0.03813461422003906 -0.004152233005624212 -0.009459705805639497 0.09901584290846871 0.024890230494721128 0.02729943717608448 -0.03150375809930086 0.06775154084430307
-0.04377263389193356 -0.13928499583554937 -0.032879462509103535 -0.05401385099225907 -0.01976864465443509 0.023680622824815818 0.07059425657176702 -0.07281344133197522
-0.10749568608097719 0.022599364709387313 0.004013115228568107 0.06627204733650495 0.05191093452839711 0.016588144535588396 0.056534716529729065 0.07817203329021889
0.05161519548237218 -0.11311489343643188 -0.14993601008262133 -0.0006965902432182257 0.11593475937843323 0.009830224231773585 -0.13115714260183414 -0.02071368243435265
-0.021190801338566524 -0.034589067121601556 -0.09433294721639501 0.029908639245191337 -0.03903411121868446 -0.020804765792444464 0.0396892677444219 0.07278782932354838
-0.11878435205630257 -0.04652876201717227 -0.06067208996574817 -0.051083555484274845 0.018827180570635076 -0.17615136690411473 0.019491700203484133 0.025185628666490698
0.006008911094217696 0.016754277051422344 0.04703957102561023 0.030272536748462607 -0.08676143408617283 -0.2548766698876392 0.04901810516971946 -0.02620708143614309
-0.05888928201316243 -0.023587009760683775 -0.22109853706176943 -0.01792287654078899 -0.1370297260610727 -0.0037173042019049154 -0.04233536969314127 -0.022625203101924923
-0.44513799121480463 -0.12454621370207801 -1.7500774876994523 0.027088398907875892 -0.07732775897778525 -0.3515335390173191 -0.3575648936161119 0.04925210557512023
-0.052634718396335954 -0.14382851844458905 -0.009452418687204105 -0.022550772234412538 -0.1328187896222009 -0.17916484013009595 0.0289596313369034 -0.4606541175924061
-0.003857980831912924 0.011892564039206575 -0.030900794361046972 0.005350381672759074 0.018703028347198575 -0.04065059857054769 0.015557586506739036 0.031406247776885984
-1.124437357415325 0.11679396033287048 0.00260098997861063 0.01500458057934304 -0.06997774541378021 0.031755386839321595 -0.022851048318581032 -0.21698566640277073
0.021037405584985288 -0.03480723487653417 -0.0065535038144683855 -0.1063558984822839 -0.012732633638581637 -0.06229194377280051 0.07848480730905509 0.03213818253285374
0.02146028688966347 0.005852302617756102 -0.002168602830899145 0.0037548573422695095 0.007332294570234363 -0.16175523586720103 0.006294800750657781 -0.3095804821018471
0.0025113021444654947 0.018937710155623424 0.06438640435489046 -0.1430538715551138 -0.16090680192511123 -0.019796474491529614 -0.0744634058998123 0.002010293997462349
-0.0020200214309990688 -0.06377849278533551 0.007225171764937248 -0.04875107530197318 -0.21979497866390052 -0.10829071199497727 0.01409287748081524 -0.056522531871991306
-0.017134878349202347 -0.031150346870829033 0.010262996574339317 -0.03996364633838018 0.006154827155791093 0.009184541966238417 -0.11903602688224903 -0.10079946824337986
-0.15560870474074534 -0.042372000896164004 -0.10974141129599618 -0.2458300235997103 -0.5848697389965487 -0.018171626063108536 -0.03282525646351935 -0.00962281957324412
-0.3609134450153802 -0.07108006223112855 -0.11723985309988458 0.05277281240820194 -0.1462279559376471 -0.05367975771270104 -0.32572276587392074 -0.5116874607855403
0.0016856511281980683 -0.037408679723739624 0.00687296362087105 -0.10374346405478296 0.12395144999027252 -0.4023741593799986 0.006388191780716275 -0.020637647754780133

bias f8 [128]
00000000: acae afb0 bb0b b23f 5773 d510 3c9a c23f
00000010: 6512 ea88 3700 c03f 046a 08b1 583e c13f
00000020: 60a7 c1d6 8a6b cd3f f061 e1f4 ddd7 be3f
00000030: a497 9fe4 3c43 bc3f 664a e3b6 2191 773f
00000040: 1606 3cfb e72e c13f 3e61 eaf3 ecec b3bf
00000050: 19dd 25e5 647f c33f 5044 1ba9 aa43 cc3f
00000060: cb14 5599 dbb9 bb3f a17a 6343 6e1d c83f
00000070: 3bb1 9a19 95ec bc3f f955 5713 d036 c93f
00000080: 9c4d efe7 5365 c13f 363b f001 a0f7 b23f
00000090: ff5b 4539 f755 c53f 5b72 ceb4 3541 b0bf
000000a0: f0d2 80a9 1634 bf3f 0229 3a12 482a c53f
000000b0: 1894 7bca 1b6d cb3f ede9 b3f0 2bf5 a73f
000000c0: cd48 e733 4f59 c53f 05ae 1659 4bd8 c93f
000000d0: 261a 2361 7ebf c23f 1aba faa3 7dc4 ca3f
000000e0: c754 9c66 a6da a33f ccbe e39c 95d3 b53f
000000f0: 6828 8b8b 6b8d c93f 4ed9 2525 0427 ce3f
00000100: a09a f734 cc91 cd3f dc17 8c75 7175 ba3f
00000110: 3a40 0c84 233e a93f bc56 161e 7dc4 ae3f
00000120: 776b 9a7c 5b8c c03f bfec 8e35 a4c9 cc3f
00000130: aa39 c406 53a2 b43f c9c3 2ab0 a87f c43f
00000140: 43c7 0b5c 1804 c43f 9267 e8f6 33b2 a4bf
00000150: 90f9 02e3 82a4 5a3f dcb3 a774 1f4f b3bf
00000160: 6972 0e25 c6b6 d23f 363d eea7 99a0 c93f
00000170: bb07 1ffb 5c96 bcbf d2a4 155e 0173 c33f
00000180: 6f3b 72fb 21e7 c73f 8c52 8112 096e cf3f
00000190: e2d6 3c57 3ece c63f 322c 44e3 2fc2 c33f
000001a0: 72f4 6197 11c8 d13f b2df 6456 b1d8 b73f
000001b0: 71e6 f481 7e60 c63f 64cf d810 5cab ad3f
000001c0: 2fc7 a5e6 9136 c73f 4ee9 e328 d3ac cd3f
000001d0: eed8 cdc9 ace9 bd3f 2d74 1d7a d9b9 bc3f
000001e0: aadb 36d8 ca40 c83f 24d7 0ee8 4e68 cc3f
000001f0: 2ec4 de71 5b45 b93f 65c7 df44 0f48 b93f
00000200: c753 ec16 c56e b93f be01 95f8 10ed cf3f
00000210: bde5 b404 f671 ba3f 5fb7 5168 3900 c83f
00000220: 476f 0d6f 6332 943f 32fa 1a77 0c99 c43f
00000230: fa8d 43f3 cbee d53f d5fb 6184 23f8 c13f
00000240: 8b1e 5427 c18f c53f 46c2 9937 3970 b53f
00000250: 386d 12e5 9b1e 913f 7074 d2fe 36e0 ca3f
00000260: 2f0e e349 7e4d a3bf 63df b4f7 3651 cd3f
00000270: 08d1 48bf 972c 9cbf 123a f722 b473 cc3f
00000280: 08f4 59cb e528 d13f b56b 2546 a064 b5bf
00000290: 96e4 b1ad 9024 c73f 2ca1 49be 3f75 b13f
000002a0: 28e1 a60e 0bcd be3f ed9d b14a b5d9 c33f
000002b0: a790 97cd 62e8 c93f 807e 8273 ff3d bf3f
000002c0: 4a31 c96c e6ae b03f 5d79 3b1c d786 a23f
000002d0: 83cd 44f7 4e3b cd3f 6ccc 6147 f5a2 c43f
000002e0: 5d51 aece 8dc0 cd3f 572f 19c1 c298 be3f
000002f0: bd3b a3c1 8618 c33f 666d ca58 ebd0 aa3f
00000300: 58ee 5529 55dc 983f f8a4 e1af 0af7 ca3f
00000310: 5075 e503 7c18 c43f 4eca 6f3e 87ae cf3f
00000320: c6b2 20c8 c097 b2bf a4e5 2b77 a85c c93f
00000330: c8dd 66c9 086a c33f 09e6 45b3 3fa4 b4bf
00000340: ea8d f398 aa49 c53f b125 c0fb c393 c23f
00000350: af76 66c8 707c d13f 4d6a ce62 29f1 8ebf
00000360: 20ee a5d2 a1c6 c23f b191 b8ff bae2 c23f
00000370: 107c 7768 b86d c03f 3590 5d55 89d1 bf3f
00000380: aaf1 43cd 1142 c33f 823d 7455 1ae5 cd3f
00000390: a0bb a774 9d51 c33f b7f5 e3da 4cfe c93f
000003a0: c7e7 7900 1013 d03f 22e1 ab1d d113 a1bf
000003b0: 31ca 5727 8dec a73f 6e9b 6d8d 96f0 ce3f
000003c0: eb2e c97f 936f ca3f 832a 915a 7b47 a03f
000003d0: 215c 91a0 fd8a acbf d7de 0820 57c4 bd3f
000003e0: a4f2 5bf9 e50e cf3f 724c 8382 1a1b c83f
000003f0: 6e81 38a4 2a57 ce3f a72d de7b 36a8 b83f
0.07049153388623591 0.14533186742746793 0.1250066202666346 0.13471516269858352 0.22984443174510272 0.12048136929059416 0.11040096837640917 0.005753642746827303
0.13424396292980195 -0.07783394770593063 0.15232526005613847 0.2208150220599543 0.10830471509423771 0.18839815416773312 0.11298496127227946 0.19698525375740397
0.135904777764705 0.0740909580929213 0.16668596550400136 -0.06349502243251363 0.12188855779897856 0.1653528298377936 0.21426722895481087 0.04679238618151147
0.166788006156429 0.20191327905682513 0.1464689230253537 0.20912142283255336 0.038777542138782865 0.08525977211297259 0.1996282988896525 0.23556567968234748
0.23101189218796936 0.10335454101377145 0.04930220591461461 0.06009284012104163 0.1292833670057367 0.22490360846663823 0.08060187258909104 0.1601458416166948
0.15637497419771237 -0.040422080888858805 0.0016261366072708207 -0.0754260692408048 0.29240563982765494 0.20021362972009066 -0.11166936045540769 0.15194718450519545
0.18674111154220038 0.2455455150944953 0.17816905269290034 0.1543636188219764 0.2778362253519112 0.0931502185748048 0.17481976838626026 0.057947995239742395
0.18135284196937948 0.23183669563861503 0.11684684683664034 0.11221083861660537 0.18947730595911355 0.22193323450999813 0.09871455698045459 0.09875579291818111
0.0993464642491083 0.24942218911929886 0.10330140700252506 0.18750684350691935 0.019723466542344494 0.16092067542736427 0.34269999271620544 0.14038509334565555
0.16844953937856064 0.08374364478528049 0.016718326431697877 0.20996749346241783 -0.03770060207309844 0.22904097647710406 -0.027513857889247567 0.2222809954386809
0.2681211934903449 -0.08356668198159307 0.18080337983318334 0.06819532771772135 0.12031621082031008 0.1550814261165522 0.2024043563716351 0.12203976221143797
0.0651687636938664 0.036184999653175544 0.22837245057744945 0.16122308717203582 0.23243877975313412 0.1195184441978062 0.149185986089348 0.052375177944862725
0.02427800240319153 0.21066411579094058 0.1569972056412703 0.24751368092218445 -0.07262806783610207 0.19814019984168596 0.15167341074059792 -0.08063123823912845
0.1663106200058871 0.1451344470263343 0.27322024889313473 -0.015108416869954367 0.14668677125506324 0.14754426466346396 0.12834839917101748 0.12429102262609677
0.15045378229832568 0.23355416462480255 0.1509281940083982 0.203073126678573 0.2511634831095048 -0.033354315635678825 0.0467266188169514 0.24171716600104837
0.2065300344423727 0.03179536324076528 -0.0557479151254301 0.1162771657189937 0.24264216113796977 0.18832713482570146 0.2370351125582703 0.09631672405355705

weight f8 [3, 128]
00000000: 8e95 fd31 f51a 793f cd40 2245 cf7f a93f
00000010: e77a bff0 fbc9 913f 1894 04a1 61ca b2bf
00000020: 1e29 0e01 7df7 7b3f 99ba 4850 7329 af3f
00000030: 29f6 583c 48e3 a43f 6377 ca29 a8b4 8bbf
00000040: 3a07 fd89 26d1 7b3f 79de 5c40 4e31 443f
00000050: 6235 5445 5320 6a3f b054 5945 492c a03f
00000060: 89c9 1c40 b3ce 98bf 3fe5 f05f ce9b b7bf
00000070: 3a2f 92f4 536c c93f 0d7e 0bec b429 91bf
00000080: 016d 4b62 0b29 663f d3f2 f78f bb19 a93f
00000090: b905 de91 4b21 c8bf fce4 5eb0 32d8 533f
000000a0: 08cd fac3 52c4 cbbf 1aaa 1f4e 7954 a13f
000000b0: d960 4563 3b57 7f3f 9db7 5b25 7b86 a43f
000000c0: 78b0 dac5 f912 a73f a661 fad9 5b16 833f
000000d0: 2d96 5342 5eab d23f 146e 4b7a 4ee5 d73f
000000e0: 04e1 1acb 5112 8b3f dd9a a236 b14f 6ebf
000000f0: 59f7 4010 c686 ab3f 4498 f0d5 84b2 c43f
00000100: d774 6920 3584 a73f b375 9f79 f4d5 433f
00000110: 1078 424d 483c 9e3f 35fd 9cb2 1f46 75bf
00000120: 0220 be41 3d31 c33f 20ab f93b 52a1 adbf
00000130: a5a3 a89c bbee 6d3f 8944 69c4 9e67 a33f
00000140: f2bf 6666 21fb a13f 440a 4b58 0d57 a6bf
00000150: 3a43 1952 c14a 9fbf fdcf cb39 8cc1 74bf
00000160: 79ab 768c b22e 9bbf 12be f3ab 5ead a83f
00000170: 9e6f 9982 022c 973f 1ee0 2331 224f 83bf
00000180: 388f fdd6 f9ce a63f f0a3 7615 feb6 b83f
00000190: 410b fc40 67ae 61bf eac6 d5c8 2c7b 54bf
000001a0: 19a6 981b d72d ac3f cf3b 5c87 2b84 b83f
000001b0: adfc 18e0 6476 953f 0426 8611 b94e 753f
000001c0: 76ff 167c bceb c4bf a460 ed8f c742 b33f
000001d0: 4b68 e7b0 3885 8c3f 871b 850f da93 c03f
000001e0: 1d33 c56f 5c77 d1bf 1857 4d68 8c2b b3bf
000001f0: 9843 2a1e bab2 c53f 42a8 46c1 fa47 61bf
00000200: 45c3 dfb8 7cc5 81bf 4ff9 31da 1b75 ad3f
00000210: 9b5b ff65 0102 c93f c93c 13cc 52db 50bf
00000220: d915 c016 4a31 98bf 34f4 38ad 832f 7abf
00000230: 6fd5 117c aa9a c13f de65 c3c3 264f c2bf
00000240: dfb7 eb86 7348 9e3f 6d84 5451 a560 583f
00000250: a0dd 8412 61a1 5e3f 5cd9 6c38 2873 c43f
00000260: b661 1b19 011d 49bf 66f8 2391 1a85 9b3f
00000270: c84b 5cdf 6f40 92bf d068 54bc ef5e b13f
00000280: c9d0 b0a0 78c7 c8bf 62b9 49bb 3687 9cbf
00000290: 739b 9560 8810 a43f 3426 855c 37ac a33f
000002a0: 8fe0 8767 213e b6bf b3c7 976b 834b c5bf
000002b0: 3a4e 7759 e202 cabf b339 6479 9adf a7bf
000002c0: 262b 2eb1 a826 62bf 43bd 9e77 acc0 a23f
000002d0: 1a1f adf5 7b8d 87bf ba2e 2cba 06d7 b53f
000002e0: ed0a 94f9 08db c13f f8cb 8acb 85ae bc3f
000002f0: 1571 e230 9707 553f 2c64 b6b9 6caa 9a3f
00000300: 0607 b3a3 bee8 913f ed2d b616 b57f 6d3f
00000310: 6919 f128 68d3 a03f 4136 940f 272a ba3f
00000320: d533 b665 7c48 6bbf e97e 3322 22a6 af3f
00000330: 4a73 a0b8 9b90 a53f ef79 8743 5f62 863f
00000340: af86 bd5d 0195 b23f df06 c397 07dc bc3f
00000350: 4db6 f4dd 54e9 11bf 2c3c 4f9e 8390 a93f
00000360: 793f 18fb ee8a a53f 232c f317 5be9 8e3f
00000370: 5161 af65 faf9 b1bf 1ea4 bb5a 87d2 a63f
00000380: b7a3 4f97 e726 6ebf 455f b484 a37d c13f
00000390: 2244 1633 eaa6 743f f4d4 4081 f5d3 a13f
000003a0: dc9b 97a3 22f1 4b3f 5877 5c68 d638 6a3f
000003b0: 3567 8e5f 4df5 a33f f126 b44e 2f97 9c3f
000003c0: 33bf d364 bc25 9c3f 1a94 ae65 776a a3bf
000003d0: 94ed 4dd4 a868 b13f aae7 f0a7 b9c6 a7bf
000003e0: 87d1 209d eae5 a0bf 0890 3938 4301 bbbf
000003f0: 4429 848c 53a1 b13f 0715 689e bbb8 a33f
00000400: af8b 7f6d 4e5d 963f 1d67 4bd7 08c7 70bf
00000410: e706 8efc 8ad7 a73f b5dc cd36 4001 b1bf
00000420: 529e 4c9a 3cc7 a13f 9ef1 5adf 053f a63f
00000430: 081e f012 1a88 a0bf 06ec 40b2 4075 8bbf
00000440: 7d57 5053 9107 9c3f f4c0 c842 bc55 343f
00000450: 51b9 b13e ebf4 ad3f 6083 304d db5b 95bf
00000460: a2fb 97bf ff1c a9bf e0b7 0ff1 4c2f 7cbf
00000470: f0b3 8c16 8697 91bf 7cb3 8829 dd55 d33f
00000480: 885b 1b7b b666 9b3f 3734 c893 ff68 a63f
00000490: 9770 e8c1 cf1f a33f c66e e612 583e 6b3f
000004a0: a234 5e7f 174b 91bf 93b5 eb81 0feb b3bf
000004b0: b924 24e0 3eee a03f c02a 2b0d f8a3 a03f
000004c0: 2c21 9d16 1457 a23f 120a 19d8 ec66 a03f
000004d0: 1a12 7500 786d a43f 6ee0 dc5f 704f a3bf
000004e0: bec2 61bd 9832 903f dd9f 0761 e733 613f
000004f0: eb8a c39c 012a a63f 69d7 559f 2321 b73f
00000500: 5da0 37df c7b6 82bf 4251 ad16 ab91 5bbf
00000510: 8a71 1f52 e89e 69bf 8d9e c3ad 39fd 95bf
00000520: 20a3 8422 bcc9 953f 375d 7bb5 30f1 ae3f
00000530: f4bd 1de7 4606 993f aecd 8eea a580 2bbf
00000540: 78bd 0316 b520 af3f a99c 171e 9990 91bf
00000550: 8ed4 f646 a5b4 a6bf 1bf1 cafa 9fcf 75bf
00000560: 3513 ee15 81f6 b13f 1b3b c846 8511 8abf
00000570: 6ac7 87fb 9d7a 74bf 346d 1943 40a0 b13f
00000580: b189 b1a8 f068 7abf 1366 56e5 bb29 92bf
00000590: 1f33 d50f 5897 ba3f 1ba9 6da1 b283 913f
000005a0: 6c3e 0588 9498 483f dadf c603 ee2e b13f
000005b0: 2027 ae54 cfce cfbf 3e94 c086 5fc0 933f
000005c0: bcb8 72a5 868d b83f 45f6 e0ae c5f6 793f
000005d0: 7f96 7772 e3b4 a33f 5aa2 a965 f8b9 a2bf
000005e0: 081a 6bbb c280 85bf afee 687e 20de ae3f
000005f0: 618f 1c55 7c39 983f 6511 4b64 0f48 b73f
00000600: a3ad 82d8 f352 b53f f712 c6b1 8851 7dbf
00000610: d402 9a6e 4bca ad3f dac7 c20a 0d5c c43f
00000620: 5636 b1b8 6c16 943f d3ef 280f 227c b2bf
00000630: dad7 6ad9 c17b a43f e8c9 de31 f807 c23f
00000640: a51c adc0 5c1a 54bf 4951 9e15 ef0e 7b3f
00000650: 57f9 67b4 2c58 98bf 3b13 3718 991d 863f
00000660: abb7 3e54 578b 9bbf 3835 db11 7c8d a83f
00000670: de5d bcd8 27d3 8ebf 3de1 afed 19c6 7ebf
00000680: 5a66 aa8b 88f4 8cbf bb11 8ad5 c779 9ebf
00000690: 466f c52c 1053 83bf 48b9 3e60 ec24 93bf
000006a0: c9e0 0458 915d ad3f a8c7 73a3 bd9d bf3f
000006b0: ec66 8c52 1949 8a3f bc58 af54 1b6d bdbf
000006c0: d451 ec65 64af 94bf e0be 0f56 90a2 81bf
000006d0: b0f7 fe59 e0bf b93f a2a1 dabf 90d1 b5bf
000006e0: d9d2 356e 4538 91bf d8fb 0dd5 b8ec ab3f
000006f0: f018 62e0 3c7a b43f cf9a b0bb dc4e 99bf
00000700: bf68 e7c6 5b80 8ebf ece3 ae67 75cb c43f
00000710: 6a65 9d58 243a 84bf e64c de38 3764 90bf
00000720: 7f40 93fb 09b4 9dbf 46aa 729b 5e71 6f3f
00000730: 45f8 4d21 5912 5c3f 5665 04ad 6630 7b3f
00000740: 567c 809d 6ce8 a93f ff91 ecfd 575e 703f
00000750: c5ff 2124 332d c13f 8970 019b 1c9b 603f
00000760: ad21 28b6 aba3 63bf a3c4 4b2e 88de c93f
00000770: ff55 f205 f576 aabf 708d e1da febe 8cbf
00000780: f016 2e8a 9a2a b33f 2c2b b317 252a a2bf
00000790: e6df 80e9 221a a13f 2a63 c272 2705 da3f
000007a0: 1f70 73f2 d7cc bb3f df91 a858 0c22 923f
000007b0: 84e6 33ff 999f a6bf f5f9 9e53 4841 a03f
000007c0: f35a f144 2190 ac3f 4378 6c73 66ec aabf
000007d0: 434e a277 59f6 a7bf 292d 0f71 c7e5 a33f
000007e0: 1f73 10be 198b a63f b2e9 c31d 8f1b 843f
000007f0: 9f03 aa26 70bb 91bf e369 957e 0d44 a2bf
0.006129224580808125 0.04980323523443673 0.01737207085522643 -0.07340059453106595 0.006827820107796504 0.060863116789154854 0.04079652535118001 -0.013528169417721342
0.006791258376155624 0.0006162292563435943 0.003189242018044312 0.03158787700218946 -0.02422599867640821 -0.09222116319951555 0.19861840669579484 -0.01676066103652656
0.002705118402770546 0.04902444965771271 -0.18851608869958428 0.0012112135895974699 -0.21692881173439837 0.03384760931642834 0.007651550277238261 0.040088508901916266
0.04506664791310383 0.009319989766752478 0.29170948483656184 0.37337076132618674 0.013218535433552343 -0.003700109596212682 0.05376261661920862 0.16169796415596427
0.04593053837445787 0.0006053394056341671 0.029526834216646647 -0.005193828410312397 0.1499401637086067 -0.0578714082920071 0.003653875760637653 0.0378999342689293
0.03511909842507056 -0.0436329050330824 -0.03055860580053891 -0.005067394024752756 -0.026545324156966175 0.048197706690071965 0.022628821583893115 -0.009428279041898743
0.044547851079896394 0.09654224418649426 -0.002158357303302522 -0.0012500703190564907 0.05503723346584994 0.09576675467199823 0.02095944993766057 0.005202029155392921
-0.1634440999896431 0.07523772491311093 0.013925974749259626 0.12951207883653756 -0.2729102221972413 -0.0748832468646835 0.1695168158808229 -0.002109517818287749
-0.008677458183201767 0.05753409422412636 0.19537370186182276 -0.0010288532796954178 -0.02362552417618766 -0.006392969476618982 0.13753253038491262 -0.1430405097842557
0.02957325469008498 0.0014878858976959078 0.0018695304843968433 0.1597643161309844 -0.0007663970338525536 0.026874938114808698 -0.017823932655186586 0.06785486553090725
-0.1935873779890527 -0.027859549695159365 0.03918863467224911 0.03842328075786519 -0.08688553598028846 -0.16636698487815024 -0.20321301811655862 -0.046627833669947626
-0.0022156996505534763 0.03662623367506026 -0.01150032847876008 0.08531229062298964 0.13949691950264 0.1120380041054857 0.001283548018853391 0.026040743670453434
0.017489413014806686 0.003600934685612725 0.03286290645387419 0.10220569734902886 -0.0033304624209393543 0.061814371752687176 0.04211889866585368 0.010929817436530846
0.07258614100058013 0.1127323861610665 -6.832676398423853e-05 0.049930680346385564 0.04207560362931324 0.015093528431313235 -0.07022061331315867 0.04457495672779309
-0.003680660558974282 0.13664669017520673 0.005041994897866638 0.03482024386213736 0.000852720178213025 0.0032009303712489494 0.03898088256319313 0.027920474222844886
0.027487701086044324 -0.03792164913401326 0.06800322707379386 -0.04643802809773885 -0.03300412338322461 -0.1054880153911314 0.06886789494106887 0.038518775068988424
0.021840310509911805 -0.004096064124235158 0.04656633694595574 -0.0664253362464134 0.034723180613863605 0.043449576869053916 -0.03228837472130058 -0.01340723556505986
0.027372618398735938 0.00031028600895678595 0.05850920810995553 -0.02085821779849384 -0.04904936994352417 -0.006881046822838827 -0.017179579855270022 0.30211571746877275
0.026759005798193708 0.04376982382755339 0.0373520778850615 0.0033256263915982546 -0.016888014935422142 -0.0778054897488885 0.033067669735893764 0.03250098381757516
0.03582060600325784 0.03203525674736708 0.03989768033583037 -0.03771544618797483 0.01581801086325884 0.0020999449845824207 0.043289232622347594 0.09034941329977432
-0.009137689113188846 -0.0016826792513785081 -0.003127530814692918 -0.0214737903887952 0.02127737007791375 0.06043388572077862 0.02443800721760954 -0.0002098276648020264
0.06079641240819006 -0.017153160535511223 -0.04434696666013692 -0.005324959679168263 0.07016760621452252 -0.012728730414008951 -0.004999749297427284 0.06885148657004408
-0.006447734903391498 -0.01773732745423302 0.10387182604354138 0.017103949644856713 0.0007506108523020589 0.0671223410816987 -0.2484988368490173 0.01928853282892739
0.09590951480160731 0.006338855933845593 0.038489444468535965 -0.0365750907993216 -0.01049949774222815 0.06028844397630217 0.02365679044227365 0.0909433002335099
0.08329700504207564 -0.0071578349710577005 0.058184010745213094 0.159059171919181 0.019616793415755694 -0.07220661993136383 0.04000669268627606 0.14086821017333695
-0.0012269883906855042 0.006606038974400549 -0.02377385951148744 0.010798641253936139 -0.026898731724649554 0.047954442195627 -0.015051184942008907 -0.007513142855707419
-0.01413828541017208 -0.02976143112984329 -0.00943577419882725 -0.018695538877801426 0.057354490274919075 0.12350068321737118 0.012834737617186197 -0.11494608705047232
-0.020200318070310377 -0.00861084711684107 0.10058405110518609 -0.08522896465240717 -0.01681622014207815 0.054540420539516965 0.07999020078759478 -0.024714898067169252
-0.014893261916700927 0.16245906412748867 -0.009876522020635565 -0.016007292600602428 -0.029007106761867348 0.00383823850605339 0.001713358918294287 0.006637955739529152
0.050601381517701924 0.003996223181080171 0.13419188751504244 0.0020270880414000087 -0.002397380231972521 0.20210363636536952 -0.05168882081595071 -0.014036170057983383
0.07486883042846748 -0.03547779001526971 0.03340252972014905 0.40656458098378556 0.1085944144173827 0.017708008681568074 -0.044186413195302726 0.03174806614650897
0.05578712431513635 -0.0525848403833469 -0.046801372388611394 0.0388624501716442 0.04403000302429504 0.009818189712395096 -0.01731658206927344 -0.03567545099459204

bias f8 [3]
00000000: 339b 1a2f aa0b d43f be04 c88f c0dd d33f
00000010: 9a8c 5697 3825 db3f
0.31321196174615124 0.3104096798052288 0.4241467931662527
