scheduling/encoder.pt (torch, 74327 bytes, 6 tensors)

weight f8 [128, 3]
-0.09421508997743754 -0.2486894249277943 -0.0642004051261431 -0.40954260100790196 0.2986510910701049 -0.41816378224474476 0.1358324913725562 -0.06646844720088978
0.3697887028857694 0.12754466543770426 -0.07160842885193051 0.2769773030393942 0.2702721767365922 0.4708714033913658 0.04388359956251504 0.31559878769826233
-0.043684273764367905 0.37313016995125425 0.01932126222691252 0.29679050013023106 -0.3412537902678228 -0.08065806214882248 0.60629179030803 -0.15904289787261738
-0.012284385223243535 -0.5660790241917756 -0.062069059038992284 -0.4119383534187203 -0.1862979485914393 -0.12760302018985345 -0.2598471220042742 -0.44896278871121537
-0.19946990010247653 -0.37836064802493447 -0.021333682960213315 -0.0010591931944412389 -0.08340853452682495 0.33745843172073364 -0.46891963481903076 0.3353860837549738
-0.007157037862997199 0.41698794766260167 0.4029224082322871 -0.0649491004066079 -0.1972608516273854 -0.2096424986314488 -0.3629387548242202 0.41523251186496946
-0.008973002433776855 -0.13476860523223877 0.47514569759368896 0.3564731733173823 0.2987971621690669 -0.4531219433382267 0.12212099422292257 0.6795394934355328
-0.1545612347546071 0.4796656254196841 -0.6734614293759922 0.2622093882706446 -0.20268659702602485 -0.24047585466454693 -0.39850317545102815 0.22193638584471734
-0.3222226305538816 -0.014554646675022582 0.0030246330698397734 0.3237848359557228 0.04928949587292583 -0.3565168049214968 -0.2544334746980753 0.4197477222493729
-0.22361228071652678 -0.6219370721695233 0.31518286359650965 0.060229944960944005 -0.469328842818731 -0.44831415141124803 -0.4101039171218872 -0.5738121271133423
0.17468714714050293 -0.43641602561720466 -0.03803652255373145 0.2933963025056905 -0.012939155101776123 -0.5030747652053833 -0.3708006739616394 0.18873595654286024
-0.45218297959628456 0.3599482625735298 0.15042689358357292 -0.6402538807477124 -0.3237365671555992 -0.12637293338775635 -0.019433557987213135 0.0751294493675232
-0.5005918058544978 -0.5913387587210306 0.1960776378741989 0.04333714946967554 0.47173809094541613 -0.1341835392542311 -0.6835235928400242 0.2903549084444457
0.21877442576660674 -0.2732301354408264 0.20720624923706055 -0.30445998907089233 0.43060098583817347 -0.10186458599523021 -0.37089880433718375 -0.2339254888083811
0.17141592332999986 -0.15154862240818995 -0.38858374267906076 0.1054597755274965 0.24555779767716115 0.08648944394704648 -0.05456349449974155 0.3246292445052881
-0.007647738157481281 0.1069306263967488 -0.17058223045022586 -0.02821286295074892 -0.036237805144960195 -0.3390073894097986 0.6550298285245464 -0.6009320921388769
-0.4130332382109311 -0.6915425246184305 -0.049888463097094146 0.4149245796345681 0.6500352219084872 -0.15186806165491176 -0.12071990545712312 0.05480381627952899
0.3194425742697694 0.31305684072715356 -0.350843220949173 -0.024092793464660645 -0.32107213139533997 -0.04495596018577563 -0.3608004927142397 0.04649855182894422
-0.2396240234375 0.04517543315887451 -0.5754629969596863 -0.5881580273584525 0.46880564192228735 0.3889940430295105 -0.2957754525088193 0.08275211336684775
0.21908629165722202 -0.463297018658498 0.6494845577982831 0.3322848066778123 -0.30382945765381597 0.026697875229446975 -0.021959754018840906 -0.5880243406486133
-0.03745492972695383 0.2814176986617855 -0.28013559919182 -0.21986992904502536 -0.6037199311520621 -0.46802504403483103 -0.32364137919226316 0.4301766235240586
-0.3572167456150055 0.20016461610794067 -0.12898170948028564 -0.3536643907741926 0.6615027201752689 0.32896155460794424 0.35304200649261475 -0.54703688621521
0.03168851137161255 0.15791025199103648 -0.24586479263433228 0.3403864503106079 0.5221401096857844 -0.3905922504522334 -0.09243321072362563 0.27479214605779556
-0.0641631947704672 0.42464573377986964 0.24565871237963588 -0.07985993766609324 0.28625200463468436 -0.11552037522736527 -0.3235212854761566 0.08074495022613293
-0.03326988220214844 0.03250396251678467 -0.08179843425750732 0.2425897879839617 -0.5050646729802103 -0.566579197896134 0.16245638036664045 0.020604411182158743
0.6803816282756812 0.19870469033529237 -0.4665729000581734 -0.5131492133479116 -0.3906349546884208 -0.43987525974854336 0.2370646617155114 0.20338308811187744
-0.5031729340553284 -0.26433664560317993 0.13500293088761506 -0.474718162540123 0.3340716408473977 -0.0698733925819397 0.038414597511291504 0.24092066287994385
-0.5425020277787809 0.15451376024356506 -0.026154881854042314 -0.08232817053794861 0.05779588222503662 -0.19369763135910034 0.14954685354898029 -0.006702221924825368
0.44740812612947806 -0.03392520961555601 -0.09411346255040928 0.4650838201204188 0.480725572590589 -0.545484989267341 -0.3944975253276047 0.5587316979997928
-0.19111621098113635 -0.24784710261656276 0.17975845396104245 -0.003620224642968736 -0.07547165658998911 0.42762920051101444 -0.4564409008439445 0.08069548590458554
-0.529410183429718 -0.4018915891647339 -0.147019624710083 -0.37866833806037903 -0.24921298027038574 -0.2544885277748108 -0.3174146222541216 0.5705631513972081
-0.6536134599521398 -0.4049756130639697 0.3857037359484282 -0.5790035496664381 0.21579572840938172 0.02934670535966985 -0.27499679074552263 0.2118590447085826
00000000: 9727 3eea 7a1e b8bf ab84 7619 0ed5 cfbf
00000010: cf1f 6810 706f b0bf 2c74 692b f235 dabf
00000020: 72e4 4377 191d d33f d738 4706 32c3 dabf
00000030: 52f4 1686 f562 c13f eb97 f17e 1304 b1bf
00000040: e9c6 543c 9eaa d73f 1cc7 6a33 6253 c03f
00000050: cf77 0914 ee54 b2bf 7376 9202 ffb9 d13f
00000060: a68d 06ac 234c d13f a600 8ccf c122 de3f
00000070: 594d e741 e977 a63f ea8f f441 c532 d43f
00000080: c1be 55fe c85d a6bf 1adc 455d 5de1 d73f
00000090: b732 87f5 f3c8 933f 2fa9 f494 9dfe d23f
000000a0: a186 3523 1ad7 d5bf 7482 16bb 01a6 b4bf
000000b0: d699 660a be66 e33f 1c11 8386 845b c4bf
000000c0: 9b49 4846 8e28 89bf 5d5e fbc1 511d e2bf
000000d0: 5ff9 5405 84c7 afbf 12b2 f9ae 325d dabf
000000e0: 2f8d 4176 9cd8 c7bf 2f0a 4bb7 4b55 c0bf
000000f0: 04f5 bdd2 55a1 d0bf 21ae a86b cebb dcbf
00000100: bbfe bccc 3a88 c9bf c911 5794 0f37 d8bf
00000110: 3f2a 783a 7fd8 95bf b75b 5608 945a 51bf
00000120: 0000 0000 435a b5bf 0000 0040 eb98 d53f
00000130: 0000 0080 c702 debf 58b6 5031 f776 d53f
00000140: b7c6 ecb8 b250 7dbf c35e 8237 eeaf da3f
00000150: 1cba 8b11 7bc9 d93f 04a8 2616 81a0 b0bf
00000160: 3da7 42f5 d73f c9bf 64a5 bcbd 90d5 cabf
00000170: 78f1 9a78 633a d7bf de8a ac62 2b93 da3f
00000180: 0000 0000 7060 82bf 0000 0000 1940 c1bf
00000190: 0000 0080 c968 de3f f52a 53db 74d0 d63f
000001a0: 0dd7 e921 7e1f d33f a335 ef2d f3ff dcbf
000001b0: 49ab 574c 5243 bf3f 32ac 949b c9be e53f
000001c0: a20d 409c a9c8 c3bf f558 8c73 d7b2 de3f
000001d0: 9031 c9fb fe8c e5bf c3e6 d4e2 09c8 d03f
000001e0: 3b3b c868 a2f1 c9bf 3985 a1ad e9c7 cebf
000001f0: 2784 7a76 1381 d9bf 7d6c 7f57 6968 cc3f
00000200: 09a4 10ab 4b9f d4bf 77de ca9b d3ce 8dbf
00000210: c46d c183 1dc7 683f 2ab7 5708 e4b8 d43f
00000220: 8cff 9e09 793c a93f f32e 67dc 2bd1 d6bf
00000230: 027f 3557 a348 d0bf 496b e88c 25dd da3f
00000240: 86aa 54c4 539f ccbf 456b 2493 e8e6 e3bf
00000250: 5b06 dabe f42b d43f 9dbb b197 75d6 ae3f
00000260: 5c76 bed7 7b09 debf a34c a9d6 2db1 dcbf
00000270: 0000 0080 243f dabf 0000 0040 ab5c e2bf
00000280: 0000 0000 265c c63f ef79 5e7b 3dee dbbf
00000290: cefb d7e8 8579 a3bf 74df 0149 01c7 d23f
000002a0: 0000 0000 d87f 8abf 0000 0040 3019 e0bf
000002b0: 0000 00c0 32bb d7bf 7c26 77f4 7f28 c83f
000002c0: cf20 4be1 90f0 dcbf 5957 0070 6409 d73f
000002d0: 42ae 303e 3041 c33f 2f5a deb4 f57c e4bf
000002e0: 80f7 1c94 19b8 d4bf 0000 0000 fd2c c0bf
000002f0: 0000 0000 64e6 93bf 0000 0000 af3b b33f
00000300: 004d 591b d904 e0bf ca0c b242 3fec e2bf
00000310: 4ac4 1271 1219 c93f 4826 596f 4930 a63f
00000320: 95d5 38f6 f430 de3f 0c15 611c ed2c c1bf
00000330: b75a a9de 6cdf e5bf 4120 00c1 2c95 d23f
00000340: 6333 efe5 cc00 cc3f 0000 0040 9a7c d1bf
00000350: 0000 0000 bc85 ca3f 0000 00c0 457c d3bf
00000360: 5938 f36f f78e db3f 0a58 7829 cc13 babf
00000370: bd3c b056 cebc d7bf f2ff 103a 45f1 cdbf
00000380: a7a5 5bfc f4f0 c53f a29e 7ffc f165 c3bf
00000390: 0b16 a458 8ede d8bf 1621 ef6e 69ff ba3f
000003a0: 758d 261b 706e cf3f 7fa8 3315 2c24 b63f
000003b0: 851d dd10 bfef abbf f46c 1ebd b9c6 d43f
000003c0: d263 6514 3c53 7fbf ba98 5037 ce5f bb3f
000003d0: 8afe 8776 a3d5 c5bf edcb cc2e d5e3 9cbf
000003e0: eced f3f7 c28d a2bf d683 a70c 4cb2 d5bf
000003f0: 765b 6d1d 01f6 e43f 854e 5bf0 d53a e3bf
00000400: 2ab9 91f6 226f dabf 1ff1 e0c9 1d21 e6bf
00000410: fe41 e60a fb8a a9bf b291 f5d2 1f8e da3f
00000420: b10a 6baa 16cd e43f 61b0 0ea3 6970 c3bf
00000430: 5320 eaed 7fe7 bebf fcae 3bed 3e0f ac3f
00000440: d613 5c44 bf71 d43f c694 2d8f 1f09 d43f
00000450: 0000 0020 3774 d6bf 0000 0000 c8ab 98bf
00000460: 0000 0020 728c d4bf bf30 84b5 7704 a7bf
00000470: 75a7 25f3 5a17 d7bf 9c56 d57e a8ce a73f
00000480: 0000 0000 00ac cebf 0000 0000 3c21 a73f
00000490: 0000 0060 316a e2bf 394d 8cc8 30d2 e2bf
000004a0: fe22 0f61 e900 de3f d9a2 4945 47e5 d83f
000004b0: ea09 df29 fced d2bf 09e3 9514 3e2f b53f
000004c0: 47b8 d504 050b cc3f 453e de89 a8a6 ddbf
000004d0: 4e05 e0d6 93c8 e43f 83e3 687e 2744 d53f
000004e0: c6cf 0b1c f171 d3bf 59c2 ee13 b056 9b3f
000004f0: ea43 5b25 9e7c 96bf e9ce 0a6c 18d1 e2bf
00000500: 2ca3 80e4 4a2d a3bf 1f26 1161 bf02 d23f
00000510: cd59 3edd bded d1bf 0da5 4fa5 b224 ccbf
00000520: 31ba 0776 ac51 e3bf f4aa 7550 1ff4 ddbf
00000530: b7d6 d054 8ab6 d4bf c287 6288 0388 db3f
00000540: 0000 00a0 a3dc d6bf 0000 0080 fe9e c93f
00000550: 0000 0000 7982 c0bf 8da2 08f8 6fa2 d6bf
00000560: 2dc5 abc0 072b e53f 13ad abc3 b40d d53f
00000570: 0000 0080 3d98 d63f 0000 0080 5381 e1bf
00000580: 0000 0000 7a39 a03f 6897 0034 6736 c43f
00000590: 7917 cd5d 7f78 cfbf 4e7a 0540 e4c8 d53f
000005a0: 31f8 e02c 5fb5 e03f 47db 70a3 76ff d8bf
000005b0: af4b 1ff1 b3a9 b7bf 4c04 21cc 3196 d13f
000005c0: 8a62 25c7 ff6c b0bf 0f1c be4c 652d db3f
000005d0: e0f1 d2a3 be71 cf3f 0956 896c b371 b4bf
000005e0: 9881 94ed f351 d23f e288 9f49 be92 bdbf
000005f0: ab84 2b9f 92b4 d4bf d8d3 8978 b3ab b43f
00000600: 0000 0000 c008 a1bf 0000 0000 5ca4 a03f
00000610: 0000 0000 bef0 b4bf 4c0a dea2 2e0d cf3f
00000620: f913 9a63 7d29 e0bf 8fd9 b1b2 6a21 e2bf
00000630: ccc2 59e4 5ecb c43f a60b b9a0 5219 953f
00000640: f2c8 47b1 afc5 e53f 44a4 46c1 276f c93f
00000650: 66c8 bc94 54dc ddbf 5c84 29e6 b76b e0bf
00000660: daea c3c0 2900 d9bf c020 bc8f ea26 dcbf
00000670: 8f7e 8d84 2258 ce3f 0000 0000 7508 ca3f
00000680: 0000 0020 fe19 e0bf 0000 0040 e4ea d0bf
00000690: e062 83aa c647 c13f a254 bb49 c861 debf
000006a0: fa7a fd04 6e61 d53f 0000 0000 39e3 b1bf
000006b0: 0000 0000 14ab a33f 0000 0000 7dd6 ce3f
000006c0: 805a 6a36 2d5c e1bf ae98 835d 1bc7 c33f
000006d0: 1482 c668 58c8 9abf 0000 0080 7513 b5bf
000006e0: 0000 0000 6c97 ad3f 0000 0080 15cb c8bf
000006f0: 8e35 9bee 5924 c33f e57d a4ff c973 7bbf
00000700: 4535 6cb1 55a2 dc3f 8015 9e23 a55e a1bf
00000710: a66f c4e3 d117 b8bf 7438 54ed eec3 dd3f
00000720: 3428 2831 35c4 de3f a896 abef 9c74 e1bf
00000730: bda3 688c 723f d9bf 9fb9 444c 21e1 e13f
00000740: 1620 f3f9 7e76 c8bf 49c0 1230 74b9 cfbf
00000750: fa99 7834 5302 c73f f95e 434e 29a8 6dbf
00000760: d035 d448 1c52 b3bf 8f9a c0dd 465e db3f
00000770: 089e 6be5 5336 ddbf 4920 e598 75a8 b43f
00000780: 0000 00a0 edf0 e0bf 0000 0080 97b8 d9bf
00000790: 0000 0000 8ad1 c2bf 0000 0020 1a3c d8bf
000007a0: 0000 0000 36e6 cfbf 0000 0040 8a49 d0bf
000007b0: 23a2 766b 8550 d4bf f5b7 71a7 0d42 e23f
000007c0: fb08 57c6 66ea e4bf 2063 72d5 1eeb d9bf
000007d0: 36fc f5b8 5eaf d83f 7aba c273 3287 e2bf
000007e0: e240 11c6 319f cb3f 387e 0f0f 100d 9e3f
000007f0: 4872 b023 8c99 d1bf 0f4d 317a 321e cb3f

bias f8 [128]
0.23686108216345103 0.3119624363702146 -0.2780217998019509 -0.1984462639228226 -0.507781370790164 -0.3812341494369768 0.023549576873899393 -0.050572803236247375
0.15507355035210896 0.27770410669881684 0.513625561387329 0.3081167306846685 -0.4288862645626068 -0.40917948933562626 -0.10093785753921165 0.08113302397630995
-0.5647905468940735 -0.5314990154744389 -0.2043872202340952 -0.23136979278785857 0.35037471247457835 0.05450613242282888 -0.16842171610439785 0.050573697133155265
0.14050125794273263 0.48625913780312713 -0.1447196900844574 0.07233545271596956 -0.16501984000205994 0.032240257986359044 0.32656707130647883 -0.4763467609882355
0.31249415082683313 -0.10581121028985895 0.17880712867948098 -0.18264880776405334 0.05761969567609989 0.1330457186058892 0.038717052757454774 -0.14444063120209555
-0.10204143933443492 0.19116759737713696 -0.14140951397646462 0.1611900011277855 -0.3076495386370608 -0.38125358820272204 -0.28226086497306824 0.2568964417250952
-0.09691843390464783 -0.08501554318538118 0.0006957416057211645 -0.22445974096115553 0.2405397260230944 -0.021386183097708397 0.34697865339204975 -0.05463665315339485
-0.4947207570075989 -0.310523157422415 -0.5247792601585388 -0.10597146232953672 -0.08137995353004518 -0.38843601837858255 -0.1985431958007224 0.27030236028742605
-0.18998843431472778 0.4397454013037463 -0.5980084062761817 0.4186212978123537 0.30957439974941486 -0.13047948479652405 -0.07532210665803686 -0.4855729341506958
0.37332468114615985 -0.36193060874938965 -0.3537380421083347 -0.2282512800161151 0.20680917597061416 -0.1194846687013238 -0.03324801145548964 -0.16471548568423816
-0.009944617748260498 -0.09373807907104492 -0.0982521534109387 0.22254954009971148 -0.17367418675270233 -0.14740467324418893 0.2423118879879496 -0.2737864553928375
-0.17569273710250854 -0.3052677029076273 -0.23334071916903443 0.17371396069418324 0.3384900376329197 -0.19040882968380235 0.29379938042524606 -0.47806093096733093
0.02123945951461792 -0.09833356582407174 -0.3127845823764801 -0.22381425884226505 -0.0881242320410546 -0.2828590779562778 -0.5889298871489813 -0.1349397903825941
0.40679716797265175 -0.28743745448879143 0.025042270906688927 0.2330044464063725 -0.29066324878509603 -0.4238106987666633 0.30113646589168913 -0.007628235772752359
-0.054866372719715416 0.378033993661377 0.28174420437189984 -0.08874435552128203 -0.15869292616844177 -0.6168390500091868 0.03210866451263428 -0.5446987152099609
-0.0910223978831479 -0.5058761835098267 0.21849539889188493 -0.3990577459335327 0.07094783480432965 0.01571518529466755 -0.18519856261144532 -0.37500372529029846
00000000: 1429 cbc4 7651 ce3f 6a98 724b 31f7 d33f
00000010: 335d 6ef2 1bcb d1bf 98ec c7ea af66 c9bf
00000020: 4dfa a1b7 be3f e0bf f3cf fcea 2366 d8bf
00000030: 8a3a 085a 611d 983f a3f6 eeaf ade4 a9bf
00000040: 4e53 9e39 73d9 c33f c01f 0f72 e7c5 d13f
00000050: 018b 91df 9e6f e03f a207 693c 2fb8 d33f
00000060: 0000 0060 df72 dbbf e1fd 382b ff2f dabf
00000070: 1d29 0f3d 10d7 b9bf f094 9a44 22c5 b43f
00000080: 0000 00a0 c312 e2bf 8934 2a39 0a02 e1bf
00000090: d519 5045 5c29 cabf e62f a77e 869d cdbf
000000a0: 2f1e db0e 8a6c d63f 62ff 5f50 3ae8 ab3f
000000b0: 0d63 4dc1 d78e c5bf 4c0d 73ae cbe4 a93f
000000c0: 4598 f4f9 f1fb c13f b8b7 8fa5 de1e df3f
000000d0: 0000 00c0 2c86 c2bf 4aa6 c183 9384 b23f
000000e0: 0000 00c0 5e1f c5bf e8ff 548b cb81 a03f
000000f0: 918e cd92 79e6 d43f 0000 0020 777c debf
00000100: c585 7f77 e7ff d33f 5fc0 be87 7116 bbbf
00000110: 172a fce8 26e3 c63f 0000 0040 0961 c7bf
00000120: 9b92 1129 5480 ad3f 947e 2461 a407 c13f
00000130: a513 c8b6 b8d2 a33f 2601 9dd5 077d c2bf
00000140: e335 c744 631f babf d814 6509 2e78 c83f
00000150: 48a3 effa b419 c2bf 059d a4bb dfa1 c43f
00000160: b0d7 c4b0 87b0 d3bf ce0d 3473 7566 d8bf
00000170: 0000 00e0 8f10 d2bf 64c1 eac5 fd70 d03f
00000180: 0000 0080 a5cf b8bf f004 a221 94c3 b5bf
00000190: e57f b5b8 4dcc 463f 9130 59c7 18bb ccbf
000001a0: 0939 5478 01ca ce3f 2fb5 f673 42e6 95bf
000001b0: 7fa7 2ef4 e534 d63f 03d8 e9dc 55f9 abbf
000001c0: 0000 0040 81a9 dfbf 68ea 7185 9cdf d3bf
000001d0: 0000 00e0 fdca e0bf 82c0 031d f220 bbbf
000001e0: bc27 f60e 51d5 b4bf de90 e1be 22dc d8bf
000001f0: c759 670a dd69 c9bf a6d4 5d45 a24c d13f
00000200: 0000 0080 8a51 c8bf 849f 4ae5 c924 dc3f
00000210: 980e 7686 e222 e3bf 36d7 e0fb b0ca da3f
00000220: 7790 a624 11d0 d33f 0000 0040 8db3 c0bf
00000230: 7918 c340 4f48 b3bf 0000 0080 a013 dfbf
00000240: 1bfe 1334 8de4 d73f 0000 0000 df29 d7bf
00000250: 2435 8de2 a4a3 d6bf b63c 7883 5637 cdbf
00000260: 4a3b a71b b978 ca3f 9111 7218 8c96 bebf
00000270: 247b b723 e205 a1bf aa4b 14a4 6515 c5bf
00000280: 0000 0000 d85d 84bf 0000 0000 38ff b7bf
00000290: c55b a999 0d27 b9bf bfea 3bda 807c cc3f
000002a0: 8191 21ac f43a c6bf f840 6e05 28de c2bf
000002b0: 998d 2b71 1304 cf3f 0000 00a0 b785 d1bf
000002c0: 0000 0080 197d c6bf f6d9 208c 8189 d3bf
000002d0: d8fb d3d2 1bde cdbf 8523 0552 423c c63f
000002e0: c9ee 691e d2a9 d53f c447 2e08 515f c8bf
000002f0: 53bc a0ea 9bcd d23f 0000 00e0 8c98 debf
00000300: 0000 0000 ccbf 953f 5a3e 5079 632c b9bf
00000310: 0000 00a0 a904 d4bf a591 0d15 f2a5 ccbf
00000320: 4af8 9946 4f8f b6bf 3bbb 4cf6 5c1a d2bf
00000330: 9923 9e7d 83d8 e2bf bda8 4f01 b545 c1bf
00000340: be11 23fd f608 da3f b430 ab10 6065 d2bf
00000350: d148 3f5a aea4 993f 7fa8 91f6 16d3 cd3f
00000360: 2197 eb06 3a9a d2bf 5974 b9e8 b61f dbbf
00000370: 1dd2 28e2 d145 d33f d0ed b8f2 c83e 7fbf
00000380: 2370 f6f8 7117 acbf 1852 e37d b531 d83f
00000390: b459 e7d7 1808 d23f 0923 ab38 f3b7 b6bf
000003a0: 0000 00c0 0c50 c4bf e1ec 553f 25bd e3bf
000003b0: 0000 0000 8c70 a03f 0000 0000 2c6e e1bf
000003c0: 1f93 1c6e 3e4d b7bf 0000 0040 2330 e0bf
000003d0: 6797 4840 a8f7 cb3f 0000 0080 298a d9bf
000003e0: 28e4 3426 a329 b23f c590 903b a417 903f
000003f0: c557 d724 96b4 c7bf 0000 00a0 0f00 d8bf

weight f8 [64, 128]
-0.02966501605040476 -0.14087537365850822 0.07099653299963314 -0.016774284847338554 -0.10447798376311224 0.025849430068148018 -0.05625246722350333 -0.6416274899704894
-0.07321647075149089 -0.1539834184206876 -0.004887812426683361 0.003974403996134057 0.02358269691467285 0.06963574165649943 0.024438478336975312 -0.018229589587640246
-0.031040512025356293 0.08882176295474412 -0.4386041573394905 -0.012000954330245773 -0.06667479206180127 -0.0025857673857425448 -0.0016489265289068374 -0.020410941612539906
0.03021191183801924 -0.003223160790299153 0.019560247659683228 0.035017069559512115 0.07720274478197098 -0.009786927486778752 -0.0013485652132122048 -0.04181335121393204
-0.009710173260404653 -0.6117698156690099 -0.010775076516530117 0.03629892319440842 -0.004527700940815493 -0.0043645574943645855 -0.023950448927227433 0.03925698036084787
0.07145091675838869 -0.04657847235886485 -0.03299508678970093 0.03787749205612024 0.03838764282578485 0.08953063770121401 0.05119853466749191 0.019490461582391587
0.08336903899908066 -0.10767688747890844 -0.05039043395159698 -0.2406179887792071 -0.025563830719360966 -0.18320551110112548 -0.03356547154188758 -0.10395071732708265
-0.009770363569259644 -0.19421998865419926 -0.005413256585597992 0.018190662677283972 0.010189396371971336 0.043450036748023155 0.0014617346306307932 -0.028019656547708393
0.03729323297739029 -0.0026029637993286153 0.013011090516364118 0.0014401831583882453 0.027648688622965246 -0.030557803809642792 -0.014361286781913661 -0.05321093276143074
-0.08897423309947725 0.0404520258307457 0.07008393043382857 -0.002322730613187751 0.0035564817577675117 -0.007065367480273802 -0.004220522830099879 -0.04654064772678504
0.04131791740655899 0.04805225878953934 -0.04108990144314179 -0.07469372408982473 -0.034163920442097 0.016338004580389382 -0.10024189189999509 -0.08042387664318085
-0.02011924982070923 0.026727709302527616 0.06893420964479446 -0.040713633230082376 -0.06819576234542811 -0.020684720474647273 -0.233416474424125 -0.0350460521876812
-0.07523083686828613 -0.68199515200597 0.06601794809103012 -0.14502651200690603 -0.08152758616411342 -0.09418408584648832 0.1584867794385113 -0.3696191297022468
0.026850310216433398 0.05606018420562189 -0.008439332094216058 -0.11251445992638807 -0.19393115502659136 -0.09976268948136566 -0.008302030131681836 -0.005085988482684302
0.0089401147625207 -0.14416661581301365 -0.03961722826164847 0.010439627808698358 -0.043722011148929596 0.1146947853571819 -0.05982434004545212 -0.08743476122617722
-0.021529169554061294 0.03054717183113098 -0.02525228021759546 0.004053905606269836 -0.07047446526374838 -0.006106235025176371 0.013431895160598891 -0.03262675926089287
-0.023137367172624032 0.004600739961367824 0.07442335391523569 0.10292819814246484 -0.46142434664826626 0.07028611272120634 0.0028723100738889235 -0.008563863294185433
0.03854585667815027 0.008680926196049406 -0.000873336987324157 -0.003170050291888036 -0.022370271384716034 0.07560515394382793 0.019199050499410092 0.026201271631915265
-0.07279540598392487 0.032951125504739436 -0.01931237876211076 0.14746532075538898 -0.0019444459013135023 0.015936236716032177 -0.0756081666348647 -0.043466123515375286
0.022362336085123558 -0.0010568011608736467 -0.07215750962495804 -0.015288590660732997 0.024637289345264435 -0.0010358386856463325 -0.007674872467053879 0.08580071479082108
0.013861341220129287 -0.017082420512493864 0.008235715044246791 -0.04443303123116493 0.005015661609647805 -0.007862773583019992 -0.0006762718099498637 -0.04887597701160144
-0.01831601411627415 0.0009443094086745363 -0.059032924894151954 0.0024705171585062006 0.10014983099334902 -0.3637997415082597 0.08602864295244217 -0.02427119283164312
0.0019820481538772583 -0.07928429591024896 -0.07694869451578254 -0.5459769132022928 -0.00687714229389627 -0.042263805143947356 -0.00041243435913432996 -0.03664899505147441
-0.05318648740649223 -0.4891235269972589 -0.029747940599918365 0.06616580486775833 0.020932099874627724 0.14651061025695644 0.028632534395336633 -0.008527661741628112
0.021782010793685913 0.004796813207433484 0.13924044049270237 0.0018648698690939525 0.0027374036794365593 -0.029480434954166412 0.15816137813591075 0.01986483484506607
0.00017549307423860412 0.01617615669965744 0.058180827018177804 0.05069383170180685 0.010698628702356444 0.017648618435914486 0.002166478287747517 0.1273079037091151
0.06071721762418747 -0.05375811457633972 -0.22002866242427926 -0.005126830767709292 -0.12219529278553894 0.09254438449463523 -0.0004813488898195009 -0.05297384783625603
-0.08650422096252441 0.07636996182462848 0.00015728314197690618 0.001858559368243934 -0.0017418192401321374 -0.005592787812275529 -0.006056685413747915 0.06082179397344589
0.07142848521471024 -0.04697373099003836 -0.043119776993989944 -0.019361672942075636 -0.3434178905453433 -0.6763177698176933 0.020550843804109046 -0.010673162707779188
0.006672726808221598 0.052582655820289585 0.009874856775558891 0.017090476028655575 -0.046147954559846105 -0.52490548925992 -0.004688887500637791 -0.06357550834192188
-0.0005210875941559145 -0.0007958196873175365 -0.00712750001326328 0.02041732000678261 0.018672510981559753 0.007205778484135948 -0.08303311467170715 -0.006955944001674652
0.041558232507215964 -0.010876677930355072 0.0012094276627761052 0.01905495673418045 0.004014180930716128 0.029910775320130357 0.04222133753556916 0.015962757170200348
00000000: aa53 1687 8160 9ebf c868 5649 3408 c2bf
00000010: 0fe1 5c2b d42c b23f 1e1a 5533 472d 91bf
00000020: 5022 6ab3 11bf babf c73e 0de3 4578 9a3f
00000030: 14a9 1696 1fcd acbf 0569 b45f 3688 e4bf
00000040: 53fc 678b 50be b2bf 1f1f 1f89 bab5 c3bf
00000050: 106c 5828 3e05 74bf 26a9 f3f2 7647 703f
00000060: 0000 0000 1026 983f 6f20 0ce1 a5d3 b13f
00000070: fd9f e284 6606 993f 6cc7 640c c7aa 92bf
00000080: 0000 0080 15c9 9fbf 024e 10e7 05bd b63f
00000090: 7f6a ea2b 1712 dcbf 9a1c f4d2 f493 88bf
000000a0: 587f 5f63 9911 b1bf d021 6b4b bf2e 65bf
000000b0: a268 f860 1904 5bbf eb60 d31a 9be6 94bf
000000c0: 6efb 2c15 dfef 9e3f eb04 e445 7567 6abf
000000d0: 0000 0000 9a07 943f 30a6 1ee1 c1ed a13f
000000e0: 0000 0020 8fc3 b33f 6d4f df2b 2b0b 84bf
000000f0: 326d 2fdf 4a18 56bf 0000 0040 8f68 a5bf
00000100: ad46 bc64 ede2 83bf 9c4e df4a 9e93 e3bf
00000110: cfce 004a 3e11 86bf 0000 00c0 c595 a23f
00000120: b34d 7877 a38b 72bf 7469 32fb 91e0 71bf
00000130: 64c4 776b 7786 98bf ab40 94ad 7d19 a43f
00000140: 7a1a bf76 9b4a b23f d63a f52e 22d9 a7bf
00000150: 4982 6165 bbe4 a0bf 0165 45bb ad64 a33f
00000160: 8bb9 038d 8ba7 a33f 65af ead8 7aeb b63f
00000170: 0000 00c0 b136 aa3f 6e3e 52bc 4ef5 933f
00000180: 0000 0060 ac57 b53f aec9 4166 b690 bbbf
00000190: 38eb b463 c6cc a9bf 1a68 51fc 91cc cebf
000001a0: 1fbd 99a3 672d 9abf 902a 5037 4773 c7bf
000001b0: fd2d 1855 7e2f a1bf 93c8 50a3 839c babf
000001c0: 0000 0000 7c02 84bf 4ee8 bf59 33dc c8bf
000001d0: 0000 0000 362c 76bf 9f7f 2ab5 92a0 923f
000001e0: 3202 78a1 2dde 843f ee7d af4d 153f a63f
000001f0: 8f7d c69b f5f2 573f 33fb 1152 2fb1 9cbf
00000200: 0000 0040 1918 a33f 7c56 818c cf52 65bf
00000210: 9e4e 0602 8fa5 8a3f 439a 31e4 9098 573f
00000220: 4ad5 a615 f04f 9c3f 0000 0080 8b4a 9fbf
00000230: 9951 7448 7369 8dbf 0000 00a0 763e abbf
00000240: d653 59ed 03c7 b6bf 0000 00c0 20b6 a43f
00000250: 223d 303d 05f1 b13f cc84 ac80 1e07 63bf
00000260: 776f d49a 7b22 6d3f b724 3124 93f0 7cbf
00000270: 7cd2 6ff8 8949 71bf 54a7 d7ff 2cd4 a7bf
00000280: 0000 0040 9f27 a53f 0000 0040 4e9a a83f
00000290: f9ce c94d bc09 a5bf 95a7 2ebe 201f b3bf
000002a0: eaff 00f2 ee7d a1bf c52e 6bed e8ba 903f
000002b0: 374f 66df 73a9 b9bf 0000 00c0 a896 b4bf
000002c0: 0000 0000 249a 94bf 94c8 6735 825e 9b3f
000002d0: 0000 0020 aca5 b13f 41f7 72d6 6ad8 a4bf
000002e0: cfd8 ff08 4775 b1bf 15af dc17 602e 95bf
000002f0: 02e7 ff4d 97e0 cdbf 0000 0060 8ef1 a1bf
00000300: 0000 0000 5442 b3bf 97ad 3c7f e7d2 e5bf
00000310: 0000 0060 8de6 b03f c6b1 0f8f 3a90 c2bf
00000320: d3f3 4bec fdde b4bf baaa 83c0 721c b8bf
00000330: ecb4 4477 4b49 c43f 3704 83fe d6a7 d7bf
00000340: eb71 11d1 a57e 9b3f 03b1 8aa3 ebb3 ac3f
00000350: a707 c2fa a348 81bf 1f00 b665 bfcd bcbf
00000360: 36e2 4170 bcd2 c8bf cef7 ae30 0c8a b9bf
00000370: 7972 3f9f a700 81bf a823 37a3 0bd5 74bf
00000380: d958 38e4 314f 823f 0ec3 0b3a 0d74 c2bf
00000390: 7ee0 7b97 b548 a4bf 4c8a 2a20 5f61 853f
000003a0: 0000 0040 bb62 a6bf 777e 2130 a35c bd3f
000003b0: 0000 00c0 4ba1 aebf 0000 00e0 1f62 b6bf
000003c0: ab34 941c be0b 96bf 0000 0000 c247 9f3f
000003d0: 916a bcd6 bbdb 99bf 0000 0000 d49a 703f
000003e0: 83c9 8253 9d0a b2bf fad4 c1fb d902 79bf
000003f0: 5e2c 8173 2e82 8b3f 0000 0060 74b4 a0bf
00000400: fcb0 496d 52b1 97bf af5c beba 39d8 723f
00000410: e0e3 1faf 680d b33f 14ac db9c 8059 ba3f
00000420: 9aad 9bfb f987 ddbf 1924 804b 45fe b13f
00000430: 5b35 9aba ab87 673f b120 3546 ee89 81bf
00000440: 436d a853 48bc a33f 715f e330 4ec7 813f
00000450: 8fcf 43e6 149e 4cbf 6219 92ca 13f8 69bf
00000460: 0000 0080 3be8 96bf 8708 99ff db5a b33f
00000470: a870 0978 eaa8 933f af3b 1793 81d4 9a3f
00000480: 0000 0040 b8a2 b2bf df88 d14c f8de a03f
00000490: fad1 c3cc 9fc6 93bf 4422 f8c4 24e0 c23f
000004a0: 4fd6 84e3 98db 5fbf a212 11be 9651 903f
000004b0: f1db 018b 0e5b b3bf 8301 f715 3141 a6bf
000004c0: 1050 97f8 26e6 963f 0d2d 289b 8b50 51bf
000004d0: 0000 0020 ea78 b2bf 9644 1ee7 9f4f 8fbf
000004e0: 0000 0080 843a 993f 1293 d751 9ff8 50bf
000004f0: ee93 f3e3 af6f 7fbf 0000 0020 09f7 b53f
00000500: c7d2 c0b9 5563 8c3f 5f2f c0d5 0d7e 91bf
00000510: b897 31f6 e2dd 803f 0000 0020 edbf a6bf
00000520: 5bc2 4c69 4d8b 743f b5cd 289b 5b1a 80bf
00000530: 04db 49a7 fa28 46bf 2656 a6a5 4506 a9bf
00000540: 4069 7de6 6ec1 92bf c328 8703 71f1 4e3f
00000550: a77e 9d43 9039 aebf e2b9 cccc 0c3d 643f
00000560: 0dfd d058 6ba3 b93f 058f 04b6 7e48 d7bf
00000570: 0000 0020 f905 b63f 5a8a c92d 8cda 98bf
00000580: 0000 0000 a83c 603f 165a 05c2 f94b b4bf
00000590: 4649 6ade e8b2 b3bf 6765 5293 a478 e1bf
000005a0: 1f25 e0d3 342b 7cbf 92a8 cbf9 99a3 a5bf
000005b0: 8602 9015 8007 3bbf 6acd 5a36 a8c3 a2bf
000005c0: 0000 0060 423b abbf d812 0ac4 cc4d dfbf
000005d0: 0000 0080 3e76 9ebf 1642 0500 3ef0 b03f
000005e0: dbaf 9771 396f 953f 680a c913 dcc0 c23f
000005f0: be79 51db d851 9d3f 0049 5562 f376 81bf
00000600: 0000 0000 064e 963f 507b 9dbd d2a5 733f
00000610: 7130 1979 a1d2 c13f f6e7 56c6 d48d 5e3f
00000620: 3aa2 ee68 c06c 663f 0000 0080 1e30 9ebf
00000630: 5ec1 4acd a13e c43f 0000 0080 7257 943f
00000640: 9262 7007 9200 273f 0000 0080 7b90 903f
00000650: 9b38 989a e0c9 ad3f ff4f 89ba 8af4 a93f
00000660: e3fd 1ba3 29e9 853f 23e1 01bc 7a12 923f
00000670: fa7b 962c 6fbf 613f cefa 7919 a04b c03f
00000680: 0000 00c0 5316 af3f 0000 0000 2f86 abbf
00000690: 66bf a532 e629 ccbf 29c7 ab27 dfff 74bf
000006a0: 5d31 3dd2 3048 bfbf 7239 d520 fdb0 b73f
000006b0: e6a4 5fbd b18b 3fbf 0000 0060 631f abbf
000006c0: 0000 0000 2425 b6bf fdfc 6e58 fb8c b33f
000006d0: 60db e9e6 8b9d 243f 4df5 12ed 5c73 5e3f
000006e0: 6b97 002b b889 5cbf 537e f48b 76e8 76bf
000006f0: 6e27 631c e5ce 78bf 0000 00c0 0824 af3f
00000700: 0000 0020 2349 b23f 5623 bfdc f00c a8bf
00000710: 0000 00a0 cb13 a6bf 5008 54e0 8bd3 93bf
00000720: 473a 3008 8ffa d5bf c142 e229 65a4 e5bf
00000730: b1e7 2cc8 470b 953f 83c9 32a6 cfdb 85bf
00000740: e8cb a976 dc54 7b3f e780 2b26 1dec aa3f
00000750: 05cc 3ad7 4439 843f 69ef 766e 2a80 913f
00000760: 3042 3967 b4a0 a7bf 6f97 bb98 06cc e0bf
00000770: 888e 84a7 a734 73bf 94b6 2709 7c46 b0bf
00000780: b89f 6e16 3313 41bf e5ca e8c3 d113 4abf
00000790: b7e7 58b7 b931 7dbf 95ec cd26 47e8 943f
000007a0: 0000 0000 e31e 933f fec4 e76e ce83 7d3f
000007b0: 0000 0080 a841 b5bf 0000 0000 d67d 7cbf
000007c0: 4801 ffe2 1e47 a53f 0000 0000 8346 86bf
000007d0: 2648 8b10 b5d0 533f 0000 0080 2483 933f
000007e0: e81a 157d 2c71 703f 6d1d 3127 eea0 9e3f
000007f0: 273a d1ff 089e a53f 0000 0080 8a58 903f

bias f8 [64]
0.07662973170974441 0.04541515645618593 0.0557098693777463 0.07053442523376958 0.06073391363416582 0.037742364444675186 0.024942583563078425 -0.0027515818741984887
0.046691786323315956 -0.052322571512908866 0.09285935283839217 0.048177290514621995 0.04997940264198441 0.07063142580073485 0.01670740498810256 0.019952388049468972
0.10681350936454714 -0.051764144653296984 0.002954699994560189 0.07790957032095917 0.06971770680629398 0.04750448739751154 0.011568118136473453 0.0930329377255656
0.08138585779036435 0.06009756759137318 0.07596282583528816 0.10718503284020998 0.011046764666178792 0.04467928730540253 0.055124374512077925 0.03995999288648958
0.07430869207164388 0.05391585755504972 -0.07589087809447496 0.017955158960688604 0.05005530064581269 -0.013596898331512845 -0.09007328649054952 -0.0020978317631846354
0.0072365736728826745 0.1108329129151016 0.09337012300887808 0.12126221131233564 0.01092909517536098 0.090550829526735 0.007921075720689497 0.09895757836318753
0.07010291706187265 -0.11343059524490323 0.11068792295307085 0.06138505434506196 0.05038276854690139 0.1293357889255013 0.0698343725243898 -0.019047426492052356
-0.02464435423198277 0.07256104815491336 0.07776787448162337 0.05288585405545682 0.013224694204788662 0.028379264184104535 0.006433945132977191 -0.07726903214090913
00000000: 2038 988f 019e b33f 77af 71c7 a740 a73f
00000010: a86d 1506 0186 ac3f cd06 9f49 8b0e b23f
00000020: a237 a2f9 8318 af3f 145c ed99 f752 a33f
00000030: 5d84 b972 8c8a 993f 73af 2e45 7c8a 66bf
00000040: 923c 805e fce7 a73f 502b fb2a 06ca aabf
00000050: 0691 916b a1c5 b73f 7823 579e b1aa a83f
00000060: 1f52 a477 e696 a93f 454e e2af e614 b23f
00000070: aa86 19f8 be1b 913f 0029 9918 666e 943f
00000080: 58e1 7d51 2158 bb3f 985b c878 d480 aabf
00000090: bf79 137b 7434 683f 33ed 92b0 e1f1 b33f
000000a0: f165 af06 05d9 b13f 6d34 9217 8252 a83f
000000b0: dc4f 9488 06b1 873f 7d6b fbb0 01d1 b73f
000000c0: 9107 911d b4d5 b43f ae89 bfbe 1bc5 ae3f
000000d0: 5a9f acbc 4c72 b33f 015d ab72 7a70 bb3f
000000e0: 2f26 bea7 af9f 863f c511 921b 34e0 a63f
000000f0: 3ad1 7b13 4339 ac3f 4515 31dd a275 a43f
00000100: 4599 41fa e405 b33f 5595 def9 db9a ab3f
00000110: 9301 7ba7 956d b3bf ce5f 1f52 d662 923f
00000120: 06ca 872e d9a0 a93f e27d 49cd b0d8 8bbf
00000130: ac5b b8fb 0a0f b7bf a1a8 17da 782f 61bf
00000140: 8e79 29f4 18a4 7d3f 6370 4ab8 8b5f bc3f
00000150: 0b23 bfb8 1ae7 b73f 52be d34f 0a0b bf3f
00000160: 330a d352 fe61 863f 5168 71d3 562e b73f
00000170: 5a23 5bc9 ec38 803f 20e1 c2aa 4855 b93f
00000180: a78b 22c8 43f2 b13f fc52 f198 c909 bdbf
00000190: 8146 2531 0b56 bc3f 561d c0a1 dc6d af3f
000001a0: e1ba 612e c5cb a93f e695 d13b 138e c03f
000001b0: e501 215a aae0 b13f 7ae1 6c27 2b81 93bf
000001c0: 0762 d49d 5e3c 99bf 07f1 c960 5c93 b23f
000001d0: 28f8 936d 98e8 b33f b9ad 2dcb da13 ab3f
000001e0: 7d93 df68 8c15 8b3f 8399 382e 740f 9d3f
000001f0: 4be6 e2fe 7a5a 7a3f 54ed 093e e7c7 b3bf

weight f8 [2, 64]
-0.07476417655241033 -0.03260464897721452 0.09090680894540495 -0.02971151447190989 -0.04441250671800325 -0.020822067551677873 0.16176990667537133 0.03239490829006256
-0.07425669691411346 0.06986130791948755 -0.04663463609378478 -0.05960622641019525 -0.08863788595413935 -0.41907935862260315 -0.0244884679949565 -0.022300195046318687
0.10123303819957956 0.06278273798648602 0.02921073935560607 -0.037260500923432506 -0.050698385404852414 0.025215702111703743 -0.080235074771575 0.07269305146744037
0.2726026883800843 -0.02742688009340151 -0.029025812308256398 0.2198796956096835 -0.026540672179484474 0.10940970823486633 -0.11998726890444908 0.048388042188532855
0.11907573859641801 0.10985431805571523 -0.0010598957106267366 -0.03312488284011249 -0.0661376645371202 -0.051060795703314114 -0.11429189440498312 0.014612734744543526
-0.03367090102529469 0.08855576101388635 -0.06059077982344725 -0.014959073112415717 0.017018812077214094 -0.054193514334257106 -0.02305938727974453 -0.09029707553505459
0.0324325817670118 0.0016177647297491108 -0.06777757581130657 0.06642588946612646 -0.05307792229191068 0.049232830229379514 -0.07037572919347333 0.07359534513172068
0.022989712361296048 -0.08403426851512448 0.1173178814818359 -0.0021668019656232457 -0.053255415014024435 0.06695320654616571 0.05324991037764068 0.045351422510634724
-0.14521966399247757 -0.02520439812219419 -0.10761410886328891 0.04871701219057519 -0.01389609067466454 0.032384341031906586 0.12487254922634695 0.022776509372517212
0.10681218094027278 0.017312628479832504 0.016865229048640296 -0.15988999122218672 -0.03835473910790049 0.010346267635827482 -0.015426201040833684 0.039423889077467536
-0.16767595328730817 -0.030955834154504706 -0.03861297506540901 -0.19270854016611594 0.05957491718775523 -0.07485713429786894 0.051694473536204065 0.23100886172185336
0.15588384948416426 -0.011764817287598126 0.04042179413632253 0.03710025719476337 -0.02133589345769599 0.04932602980422628 -0.05250192692523804 -0.0267098852054482
0.07288157354289737 0.09120469429306757 0.020095416315149467 0.06809979464913846 -0.0331387543141181 -0.02223967054171722 -0.01926071932286764 -0.03009395800637375
-0.0198221289653247 0.046799951034043 0.08295879636836172 -0.16246189362536262 -0.03495115786762909 0.08017446753296767 0.03643179457507569 0.06181956502856396
-0.05027319033448433 0.006578232837579354 0.09032704924399558 -0.1441128955842901 0.08519012994009564 -0.25369204766970477 0.04146865448989784 0.0647440426687995
0.017920199621223362 -0.05103374838399576 0.11794256683038348 -0.06121620637925491 -0.026720738525333985 0.04312006421465684 0.04107092851389277 -0.04474723275310496
00000000: 1279 34bd be23 b3bf 2401 1c7a 8eb1 a0bf
00000010: ea7b 672b ab45 b73f 9fcc e2fb b16c 9ebf
00000020: a33f c66f 3cbd a6bf f1a0 ad4c 6152 95bf
00000030: 92e7 5255 e0b4 c43f 6452 53bf 1096 a03f
00000040: 544e c1a4 7c02 b3bf ba1d c540 6ee2 b13f
00000050: fa6f c4b9 7ee0 a7bf 98b7 2312 b584 aebf
00000060: 280f 5cf5 f8b0 b6bf 789d ed3a 32d2 dabf
00000070: 1a80 ab44 8113 99bf 8e66 acc1 dcd5 96bf
00000080: 9b87 578c 68ea b93f 5fc1 678e 8712 b03f
00000090: 0bb1 e588 6be9 9d3f 1525 ccf1 ce13 a3bf
000000a0: 6435 8c86 23f5 a9bf 9a6a a91f 25d2 993f
000000b0: d1d2 222e 498a b4bf 4cf8 b206 039c b23f
000000c0: 9c39 d98b 5272 d13f 9440 21c4 ca15 9cbf
000000d0: 5e49 6a4a f1b8 9dbf e658 d992 0425 cc3f
000000e0: 3156 195c 7a2d 9bbf abd0 bb4e 4602 bc3f
000000f0: 0687 e153 7cb7 bebf 0d37 6f45 51c6 a83f
00000100: ecc6 0463 bf7b be3f 71a9 5f9f 691f bc3f
00000110: a218 845a 865d 51bf bed7 f6a0 bef5 a0bf
00000120: 1683 38e2 65ee b0bf cf93 4eff a324 aabf
00000130: 61d3 aacc 3b42 bdbf 10db a90e 48ed 8d3f
00000140: 4103 76f5 4f3d a1bf 1452 6d21 97ab b63f
00000150: 9aca 8f33 c105 afbf b7d1 5ece dca2 8ebf
00000160: 7953 2725 616d 913f 3e1f 7197 40bf abbf
00000170: 5be0 ed48 e19c 97bf d6f5 588a b51d b7bf
00000180: 3040 07dc 009b a03f e85c d7a6 6581 5a3f
00000190: 3d00 8307 df59 b1bf 8e5e dd7e 4901 b13f
000001a0: 234b c488 072d abbf 8f0c 73a7 0b35 a93f
000001b0: 5770 51cf 2404 b2bf c583 7a00 25d7 b23f
000001c0: f1e1 f17a 9d8a 973f ad07 0413 4583 b5bf
000001d0: 4353 3370 8b08 be3f 044d 89f2 1cc0 61bf
000001e0: b2e9 a333 4b44 abbf bc65 7a68 d823 b13f
000001f0: dc7d 2c7f 9243 ab3f 0f40 0539 4d38 a73f
00000200: f5b9 cad5 8e96 c2bf d9ca 9986 2ecf 99bf
00000210: 3ff0 2726 998c bbbf cb15 3cac 6ff1 a83f
00000220: ec62 ebb7 8d75 8cbf b2e3 442b ae94 a03f
00000230: 4166 18bb a5f7 bf3f 48ed 7cab b952 973f
00000240: a8f1 f307 0b58 bb3f 60c4 83d4 66ba 913f
00000250: a057 d05c 1e45 913f 00e6 a075 4677 c4bf
00000260: 28e7 3a7c 3ba3 a3bf 0966 0d89 6c30 853f
00000270: 7874 c6a7 c597 8fbf 52a7 8934 5e2f a43f
00000280: 0ee9 d8d7 6776 c5bf 9188 41dd e2b2 9fbf
00000290: 49e2 3672 14c5 a3bf 0031 d666 acaa c8bf
000002a0: 5475 f781 9a80 ae3f 1c7f ae4f d629 b3bf
000002b0: 53a1 71b2 b277 aa3f ea3c 17c9 b291 cd3f
000002c0: 4529 c181 00f4 c33f 72fe f20b 2718 88bf
000002d0: a1e8 b857 2ab2 a43f bc3e a60e cefe a23f
000002e0: 11e8 8692 13d9 95bf 6f8b b3e9 4241 a93f
000002f0: e2e3 3d56 88e1 aabf 4fcf bf0d d659 9bbf
00000300: 0007 d9e6 5da8 b23f b2fb 3adb 3059 b73f
00000310: 8806 7e8f e493 943f b4e2 e1f6 fc6e b13f
00000320: 16c5 0414 90f7 a0bf 111a 9a06 ffc5 96bf
00000330: 9b4a 5bfe 14b9 93bf 0b3e c755 f3d0 9ebf
00000340: 8f99 928e 404c 94bf 308e 4ac6 29f6 a73f
00000350: ab50 51a5 c93c b53f 02cc fb23 8dcb c4bf
00000360: b862 ff3f 1ee5 a1bf 523f 075c 5086 b43f
00000370: ab15 782c 30a7 a23f d9eb 1964 d0a6 af3f
00000380: b552 b458 68bd a9bf bd2e 72ee c6f1 7a3f
00000390: ef77 726a ac1f b73f a1b2 bb96 4a72 c2bf
000003a0: 2ee2 0836 05cf b53f 32c9 ff91 7d3c d0bf
000003b0: 78bc af25 613b a53f 0f92 dfc9 1093 b03f
000003c0: 9c68 3e3d ac59 923f 5f65 9a70 1821 aabf
000003d0: 2ec1 57eb 7b31 be3f f9a6 c408 bb57 afbf
000003e0: a677 5d68 ae5c 9bbf 0ded 3443 d513 a63f
000003f0: f829 91ad 3f07 a53f 0bad 85fa 1be9 a6bf

bias f8 [2]
-0.1054414064731907 -0.08124388734428126
00000000: 2a54 7240 35fe babf bac2 243f 66cc b4bf
