scheduling/encoder.pt (torch, 74327 bytes, 6 tensors)

weight f8 [128, 3]
000000 00 00 00 00 8c be ce bf 00 00 00 c0 41 ac de bf
       -0.2401900291442871 -0.4792637228965759
000010 00 00 00 00 88 bb bc 3f 0e ca 65 23 51 d4 b9 bf
       0.11223649978637695 -0.10089594949912614
000020 b7 e4 41 5b c1 10 ca bf 6a 37 0c 4c 36 96 dc 3f
       -0.20363633113791987 0.4466682188657304
000030 0e 02 7f 8b 13 d6 d8 bf 90 b0 5d 03 b1 26 b6 bf
       -0.3880661833063933 -0.08652788479020246
000040 b9 a6 96 13 6b db e2 bf e6 60 7e 28 5e 25 b1 bf
       -0.5892844564998178 -0.06697643746008772
000050 ea d2 82 41 fd 2e df 3f 6b a9 83 65 d5 f5 b0 3f
       0.48724299809991456 0.06625112274529037
000060 d3 49 72 94 8e e7 da bf 2e 36 8f ba 39 09 d9 bf
       -0.42038311478350215 -0.3911880800122586
000070 8f 5b 06 ab d9 45 d9 3f a9 0d 19 83 f4 8e c5 3f
       0.3948883218922043 0.16842514420760082
000080 ca c7 7c 2b 4e fc e0 bf fc 8b 20 b2 66 30 e1 bf
       -0.5307989930499784 -0.5371583441777825
000090 86 4d 55 ed ff d7 c9 bf 6f 06 65 0c 67 04 d4 bf
       -0.20190428818260048 -0.31276870928204564
0000a0 b4 30 bb c1 40 20 da bf 59 34 ac 31 e9 f6 e7 bf
       -0.40821856421531355 -0.7488904924554262
0000b0 25 c9 48 f7 6f a4 a0 3f 1e ba c8 60 54 87 ae 3f
       0.03250455754859364 0.05962623292395029
0000c0 f1 c1 71 98 67 69 ce 3f 00 2c a1 e9 4f a4 97 3f
       0.23759169524738824 0.02308773864232805
0000d0 79 b2 32 69 e9 5e e3 bf b4 37 bf ef d9 b5 b6 bf
       -0.6053359083794724 -0.08871233084866398
0000e0 7c 20 78 26 c6 a1 92 3f 46 60 5f 89 67 39 d0 3f
       0.018195243928886815 0.2535036889580663
0000f0 b3 ed a7 2d 76 03 d1 bf a0 a8 68 3f 86 c8 bb bf
       -0.2658362813815202 -0.10852850959841698
000100 17 d4 91 58 b5 6d e2 3f 90 24 0b 62 af ae d3 3f
       0.5758921365619497 0.30753693174899244
000110 48 c8 3a e7 3f 52 e9 bf be b8 d3 7b 10 93 a1 3f
       -0.7912902370646941 0.0343251372486164
000120 0f 91 da 08 72 af d5 3f c5 a9 6d d3 c9 b3 eb bf
       0.33883334030748896 -0.8656968240223298
000130 d6 12 aa db 28 84 e8 bf d2 42 a1 4d 51 aa d8 3f
       -0.766132763893064 0.38539536076590963
000140 99 42 86 65 48 6e 97 bf fc 37 61 57 18 a9 e1 3f
       -0.022881632992325682 0.5518914896617839
000150 7a ef 8a c2 42 d4 89 bf 9c 02 b2 16 23 e6 d5 bf
       -0.012611886560413888 -0.3421714517244625
000160 b1 a9 7d f9 3d f0 a7 bf 8f e9 a2 fa 27 4e d5 3f
       -0.046754776673725636 0.33289527393540025
000170 39 4c 37 d2 e9 b7 ad 3f 6d 49 22 5a bb b6 cd bf
       0.05804377261269917 -0.23213903332777922
000180 94 bb 4e c6 6a 6f c1 bf 69 f1 02 17 6f 30 c9 3f
       -0.13621267970071627 0.19679058669670305
000190 14 1d b7 29 73 d0 c4 3f 7f 5f 94 53 17 71 c4 3f
       0.1626113847434928 0.1597012670615605
0001a0 b0 cb 85 32 e4 41 e1 bf f1 b3 67 64 72 81 6c 3f
       -0.5392933832903193 0.0034796938154983905
0001b0 50 e3 8f 6e b1 c8 ab 3f 72 19 8c 04 7e 66 d8 3f
       0.05426554178843068 0.38125563091343573
0001c0 58 d7 93 40 e7 cc c5 3f 59 25 99 62 49 2c bc 3f
       0.17031565335463017 0.11005076081450706
0001d0 8b c2 56 38 8a 29 c8 3f 89 fa 02 7a 82 0f b7 3f
       0.1887676978199305 0.0900804088478059
0001e0 ee ad d6 6b 39 60 dd 3f 43 1c 77 3c 9f ec c2 3f
       0.4589980652915234 0.14784613087087636
0001f0 cf 6f aa 57 cf 0a e1 bf 00 00 00 00 73 04 b7 3f
       -0.5325695717069666 0.08991163969039917
000200 00 00 00 00 af 29 bd 3f 00 00 00 00 cc 34 a9 bf
       0.1139172911643982 -0.04923093318939209
000210 00 00 00 00 9a 0f a1 3f 00 00 00 20 4d 75 d3 bf
       0.033322155475616455 -0.3040345013141632
000220 00 00 00 80 dd b9 cc 3f 00 00 00 00 96 02 b6 3f
       0.2244221568107605 0.08597695827484131
000230 00 00 00 60 66 c0 db bf 00 00 00 00 02 ed d1 3f
       -0.4336181581020355 0.2800908088684082
000240 91 f6 c0 93 05 99 b8 bf 31 b5 66 e6 c6 85 e1 3f
       -0.09608492715138996 0.547580194475506
000250 ae e5 b0 8b 4e da ca bf c7 eb b3 94 64 ec d7 3f
       -0.209787195404528 0.3738032772232
000260 1e d7 66 5a 9e 55 de bf b2 ab ef d5 7a 37 c2 3f
       -0.4739757426099106 0.14231810995201283
000270 00 00 00 c0 52 43 c1 bf 00 00 00 80 68 6e b8 bf
       -0.13486704230308533 -0.09543469548225403
000280 00 00 00 c0 32 31 c8 bf 98 cf e9 c3 c7 be e4 bf
       -0.1890014111995697 -0.6482886148864848
000290 68 c1 9c 32 fd cb d9 3f 61 cb e1 89 48 62 90 3f
       0.4030755037556646 0.015999921241426466
0002a0 e2 f5 2c 97 5d 3a e4 3f 8b 51 49 7e 3c 68 a2 bf
       0.632124705567261 -0.03595150987226522
0002b0 4b 61 0b 6c 63 24 bd 3f 00 00 00 c0 93 56 dd bf
       0.11383649242214237 -0.45840924978256226
0002c0 00 00 00 40 0c d3 d4 3f 00 00 00 80 86 13 e0 bf
       0.325381338596344 -0.5023834705352783
0002d0 c2 05 1c 6b a6 4a af 3f 7a 44 ab cb 94 8d d7 3f
       0.06111640985001145 0.36801643266250716
0002e0 fc 6c 65 d4 47 9c 89 3f 00 00 00 40 35 32 d9 bf
       0.012505112809483958 -0.39368945360183716
0002f0 00 00 00 00 16 40 c1 3f 00 00 00 00 20 24 95 3f
       0.13476824760437012 0.020645618438720703
000300 25 a7 74 04 99 73 eb bf 32 c0 8d e3 e3 8e a0 3f
       -0.8578610503220473 0.032340165641358345
000310 57 b7 b7 1c 99 7b c4 3f 0f 0f 2d 62 75 84 d1 3f
       0.16002191450337008 0.27370962703229024
000320 b8 0c ac 6f a9 8e e8 bf bb ad 52 f5 c8 d2 c4 3f
       -0.7674147778601741 0.1626826475015671
000330 ef 6d 6a 56 d7 1e db bf c7 10 59 31 58 76 d2 3f
       -0.42375739516293626 0.28847317523128563
000340 8f 21 ba 7c ea 27 c9 3f 9e 0a 8d 06 8b 2d da 3f
       0.1965306386012 0.40902972831478646
000350 e9 12 eb 43 a0 29 da bf d7 a3 69 09 f4 25 d6 bf
       -0.4087906516327125 -0.34606648368077003
000360 00 00 00 80 03 16 c6 bf 00 00 00 00 6f 69 b7 3f
       -0.17254680395126343 0.09145253896713257
000370 00 00 00 e0 e3 bf db bf 09 ef a0 61 2e 46 ba bf
       -0.43358704447746277 -0.10263337977897548
000380 bb 52 a4 ac 73 b8 dd 3f 81 b5 08 23 f6 ea a6 3f
       0.4643830476718837 0.04476136377011653
000390 00 00 00 80 70 f4 df bf 00 00 00 80 f9 cd cd 3f
       -0.4992944002151489 0.23284834623336792
0003a0 00 00 00 40 f6 e6 e0 bf 0e f1 d3 78 87 94 c3 3f
       -0.5281935930252075 0.1529702510814634
0003b0 30 46 0a 90 1e b7 d9 3f a3 92 1a 82 a3 ce cd 3f
       0.401801720298951 0.23286861279224977
0003c0 00 00 00 a0 d2 77 d6 bf 00 00 00 c0 a8 15 c6 bf
       -0.35106340050697327 -0.1725359857082367
0003d0 00 00 00 00 76 60 d4 bf 5b 86 86 3c c6 f7 cb bf
       -0.318387508392334 -0.21849897342058253
0003e0 35 70 95 fe 3f df dc 3f 8a a7 e5 c1 47 f1 c8 bf
       0.45112609731382075 -0.19486329047805057
0003f0 96 70 50 e4 f9 39 c9 bf e2 48 b3 30 ba e9 e4 bf
       -0.19708179138331577 -0.6535311652353608
000400 05 64 99 99 c3 26 ca bf 00 00 00 a0 04 d1 e1 bf
       -0.20430798530540542 -0.5567649006843567
000410 00 00 00 00 16 9b a4 bf 00 00 00 40 14 7f d4 3f
       -0.04024571180343628 0.3202562928199768
000420 61 aa 49 97 fd 69 ba 3f 02 da c5 e0 85 74 e3 bf
       0.10317978805111629 -0.6079739942641142
000430 ef 39 0f 4f a7 60 a3 bf f8 94 c7 7d 2f 68 d9 bf
       -0.03784678306657329 -0.39698397906461436
000440 af 0a b5 17 41 fb dd bf 65 47 89 aa 9a 43 c6 3f
       -0.4684603435054368 0.1739381153770935
000450 31 e6 89 f3 1e 64 b5 bf da 2f 29 12 0a 1f b1 bf
       -0.08355897374885825 -0.06687987273579613
000460 c6 62 7f cd 80 a4 d3 3f 00 00 00 a0 fa 2f d2 bf
       0.30691547458767976 -0.28417840600013733
000470 00 00 00 c0 33 e0 ca bf 00 00 00 40 c8 17 d2 3f
       -0.20996710658073425 0.2827015519142151
000480 c6 f4 94 d4 a6 32 ce 3f 09 9d 39 cb 40 58 d2 3f
       0.235920766639458 0.28663654180714154
000490 73 4e 1c 9b 1a 8b e1 bf c6 2e e5 8b a4 cc b6 bf
       -0.5482304601195679 -0.08906010070239309
0004a0 45 3f 78 1a 4b e0 db 3f 86 c5 09 f4 fc c5 d9 bf
       0.43556478104527613 -0.4027092345414406
0004b0 00 00 00 00 51 f1 c2 3f 00 00 00 00 fa 10 b1 bf
       0.1479893922805786 -0.06666529178619385
0004c0 00 00 00 80 ca 76 c2 bf 00 00 00 00 3c f6 d5 bf
       -0.14425021409988403 -0.3431539535522461
0004d0 00 00 00 20 42 e4 e1 bf 00 00 00 80 e6 c2 d6 3f
       -0.5591135621070862 0.3556457757949829
0004e0 77 b6 7b 25 63 e5 d1 3f 0e 7d dd 94 ff d4 b8 bf
       0.2796256891295807 -0.0970000971260456
0004f0 8b 2a 32 25 b9 ea 6b 3f 30 fe 59 21 21 10 e1 3f
       0.0034078231925083794 0.5332189227482953
000500 6c f2 88 83 f2 ad cd bf b9 eb eb 19 c4 72 ab bf
       -0.23187095091443 -0.05360997024941789
000510 00 00 00 00 e2 be ca 3f 00 00 00 00 be c5 d6 bf
       0.20895028114318848 -0.3558192253112793
000520 00 00 00 80 86 44 db bf 00 00 00 80 58 41 bc bf
       -0.42605745792388916 -0.11037209630012512
000530 00 00 00 80 dd f0 c2 3f 00 00 00 80 b9 5a c2 bf
       0.1479756236076355 -0.14339369535446167
000540 00 00 00 40 10 e7 d2 bf 00 00 00 e0 39 e1 d1 bf
       -0.2953529953956604 -0.2793717086315155
000550 00 00 00 c0 9b 5d d6 bf 33 1d 94 b1 1e d5 ca bf
       -0.34946340322494507 -0.20962890311077728
000560 b2 b1 63 53 d2 7d c7 3f a3 77 31 7d 1e 58 e1 3f
       0.18352727004766006 0.542006725805312
000570 00 30 15 ce 54 b1 ec bf cb 31 97 c8 03 9c a2 3f
       -0.8966468834928492 0.03634654830566183
000580 38 61 fb 49 5f 3e af 3f de 80 e6 25 b2 1c e4 bf
       0.061022737294197105 -0.6285029163591636
000590 b9 4a 03 b6 94 24 9b 3f 44 71 b8 5b 83 58 d3 bf
       0.026506732567961964 -0.3022774120052143
0005a0 00 00 00 40 f4 3f d6 bf 00 00 00 80 d0 a4 c9 3f
       -0.34765344858169556 0.20034223794937134
0005b0 00 00 00 a0 d3 07 d4 bf 60 ad d6 4e a0 9c e1 3f
       -0.31297770142555237 0.5503694095436167
0005c0 24 73 1a 69 bc 2a 9e bf 30 17 da 26 8d 34 a2 3f
       -0.02945989982127907 0.035557185166040006
0005d0 4b f4 c5 78 ac f8 cd 3f 28 bb 99 86 bf af 8c bf
       0.23415141961223393 -0.014007087989026681
0005e0 04 ba 95 4f 87 67 c0 3f 14 b4 ba c6 b5 ce d6 3f
       0.1281594408605572 0.3563665810314103
0005f0 4f 79 8d a3 58 8b 93 3f fc d0 a3 e6 53 b3 a1 3f
       0.019086251242123094 0.034571287063871
000600 00 00 00 80 1d 5a d8 bf 00 00 00 80 e5 8d d3 bf
       -0.3805001974105835 -0.3055356740951538
000610 00 00 00 80 fd 9a c2 3f a3 9e 88 90 f6 22 e4 bf
       0.14535492658615112 -0.6292679617808584
000620 88 bc 5b a1 9d 3e e2 3f 5d 2e d7 80 cf f9 a0 3f
       0.5701435233621774 0.033155903318029735
000630 e9 07 1a cf ed 6d ca 3f c2 93 5f 79 8b e5 c8 3f
       0.20647976505648494 0.1945051520007422
000640 7c ac 40 57 d2 2d d6 3f 00 00 00 80 b0 91 d3 bf
       0.3465467311932071 -0.3057671785354614
000650 00 00 00 80 60 43 bd bf 00 00 00 00 f7 5a de 3f
       -0.11430934071540833 0.4743020534515381
000660 7e 08 eb 85 bd 03 d0 bf 0a d6 d5 81 8a 49 bb bf
       -0.2502282913011483 -0.10659089727217733
000670 26 d0 c0 9d f3 b0 e3 bf d7 51 9a c3 bd 59 c0 bf
       -0.6153505402676316 -0.127738686093507
000680 05 86 2e 48 1c 7d c1 3f a1 9e 87 29 06 3e d8 3f
       0.1366305687379709 0.37878564887658156
000690 c3 18 96 38 55 8e 9a bf cf 7c 75 46 1b 68 d5 bf
       -0.025933581904177282 -0.3344791591716331
0006a0 26 18 6f e3 74 ab d8 3f a2 b6 7d 7a 6f d3 d3 bf
       0.38546488008830904 -0.3097799965097271
0006b0 50 8c 6d c2 72 e7 d7 3f 4c f1 7c c2 ac 51 de bf
       0.3735014818868807 -0.47373503678297335
0006c0 ab 7e 88 84 91 fa e4 bf e0 aa c7 a3 dc f7 95 3f
       -0.6555869663752295 0.02145333051331988
0006d0 12 74 c3 9e 33 b9 b3 bf bd b8 ab d0 60 bf d8 3f
       -0.07704470277845157 0.38668079736715893
0006e0 7d 05 70 c5 11 2a de bf f5 ea 93 4d 0a a1 ce bf
       -0.47131771355642355 -0.23928955829600054
0006f0 6b ca f6 93 55 43 e0 3f b1 d1 ee 4b df 04 e1 bf
       0.5082195177004228 -0.5318447573723032
000700 b6 13 36 74 a4 3a ab bf 3b b1 55 52 52 47 da 3f
       -0.053181780992452785 0.41060312309743424
000710 91 44 e6 29 4f 0b 94 bf 7d 06 00 a4 42 5c d8 bf
       -0.01957439130052713 -0.38063112273821514
000720 7c a2 2d 89 1e aa c2 bf eb ee 10 fd 75 e5 e7 bf
       -0.14581662843854193 -0.7467603628824383
000730 51 80 80 60 be 82 e1 bf 1b a7 e2 a4 6b c7 d3 3f
       -0.5472099194339625 0.309046660443174
000740 4e b7 54 f2 9e 30 e3 bf 46 ae 7f 28 cf 8e bb 3f
       -0.5996851666475125 0.10764784563769422
000750 f9 5c da 7e ae c9 d4 bf 4b 06 86 e2 1a b6 c2 bf
       -0.3248096693800587 -0.14618240414351855
000760 e2 8b a0 be 93 ec e1 3f 00 00 00 00 e6 bd af 3f
       0.5601290438829631 0.06199568510055542
000770 00 00 00 40 82 f0 d6 3f 00 00 00 40 63 2d e1 bf
       0.358429491519928 -0.5367904901504517
000780 42 de 94 47 fb 12 c0 bf 40 29 52 e3 39 2f ce bf
       -0.1255792712706683 -0.23581622695594184
000790 7a 9c e9 9c e1 a8 c3 bf 00 00 00 80 4e e7 dd 3f
       -0.1535913482832461 0.4672428369522095
0007a0 00 00 00 00 b6 5e a6 bf 00 00 00 c0 e2 a5 c1 bf
       -0.04369133710861206 -0.13787493109703064
0007b0 a7 84 28 6e 03 61 ca 3f 60 cc 3f 35 bc 2a d1 3f
       0.20608561400243738 0.26823334884756456
0007c0 ff 28 28 f5 44 31 a0 bf f4 6d bd 8e 3a 88 c1 3f
       -0.03162589542997018 0.136969871232267
0007d0 ed 13 7e 8c 12 7d db bf 56 19 ec ce 8d 02 a6 3f
       -0.42950881690950277 0.04298823500544084
0007e0 00 00 00 20 6d b7 d5 bf 00 00 00 00 94 f0 d0 3f
       -0.33932045102119446 0.26468372344970703
0007f0 00 00 00 80 e7 ae c8 3f d1 e5 f6 15 5e 33 a3 3f
       0.192837655544281 0.037501278096396036

bias f8 [128]
000000 00 00 00 a0 89 ce df bf 4a bf b2 42 40 bb b1 bf
       -0.49698105454444885 -0.06926347378134526
000010 67 aa 83 a5 9c fa e1 3f 79 06 d6 3a c7 a1 ca bf
       0.5618422730161229 -0.20806208012441
000020 5f d8 b3 a0 a6 77 c4 3f aa 01 10 34 c9 94 d7 3f
       0.1599014553718829 0.3684561737464046
000030 43 af 3c 68 ca ed d7 3f 2f 53 61 00 4d 6e cb 3f
       0.3738885896625456 0.21430361288607844
000040 f6 9c e3 13 4b fc cb 3f 66 25 f2 b2 95 5f c0 bf
       0.21863687964580664 -0.12791701543418837
000050 73 5a be 9d 8d 46 cf bf ca 72 cb 0b 8e 6a b0 bf
       -0.24434061243364943 -0.06412589824635542
000060 b6 90 34 8b 01 71 7e 3f bc 57 fe 29 5d 34 e1 bf
       0.0074319896987484115 -0.5376420803247508
000070 d1 ba 91 8d b4 b5 d3 3f a4 ee 8b 85 6e b9 ae bf
       0.30796541047213305 -0.06000848179061549
000080 9a 7b d6 3d ed bf b4 bf 3b 6b fd e4 75 2c d1 3f
       -0.08105356940948952 0.26833865511223437
000090 aa c7 31 ec 37 e1 cf bf 1e ce 45 55 21 7d d7 bf
       -0.24906062157566328 -0.36701234176072883
0000a0 3a 07 1a 72 c1 12 a0 bf 00 00 00 e0 7d 57 da bf
       -0.03139309423296628 -0.4115900695323944
0000b0 00 00 00 e0 8c de de bf 00 00 00 a0 c1 73 e1 bf
       -0.48233339190483093 -0.5453804135322571
0000c0 fc 8c d0 b0 9c 45 d0 bf 99 1f d4 e1 2f de d3 bf
       -0.2542487837510661 -0.3104362206799976
0000d0 00 00 00 c0 17 b1 e0 bf ec 09 a0 5e 1f d1 bf bf
       -0.5216177701950073 -0.12428470668968544
0000e0 92 22 20 47 a4 09 d2 bf 00 00 00 00 f3 44 e0 bf
       -0.28183848329403205 -0.5084166526794434
0000f0 ce e6 0d 79 dc b7 d5 bf 00 00 00 00 1b 37 de bf
       -0.33934699842175753 -0.47211337089538574
000100 d5 44 66 a0 fa 09 c7 3f 3f f1 41 e5 b8 cc cb 3f
       0.17999203521734466 0.2171851272031606
000110 78 91 b7 a1 50 89 b3 bf 9c 87 9c f6 f7 1a af 3f
       -0.0763140101258325 0.06075262914079291
000120 00 00 00 00 77 af dc bf 31 d6 74 aa 19 d1 c4 bf
       -0.4482095241546631 -0.1626312334353073
000130 00 00 00 e0 a9 be e1 bf d4 b0 c8 e0 41 c0 d8 bf
       -0.5545243620872498 -0.38673445655400696
000140 00 00 00 c0 dd 11 d1 bf 8e 76 0d e4 ce 20 b5 3f
       -0.26671546697616577 0.0825318629044551
000150 70 e3 0c a4 84 cf d0 3f 00 00 00 00 b8 0d d9 bf
       0.26266590137998147 -0.3914623260498047
000160 96 57 48 04 59 34 da 3f 14 7c df 54 d5 ca d5 3f
       0.4094450513670095 0.34050496376397743
000170 57 f4 88 36 65 27 a7 bf 00 00 00 a0 1e 39 d8 bf
       -0.04522243776998696 -0.378486305475235
000180 b6 ce 02 63 1e ad b0 bf 5e d3 b6 d5 9c da d0 bf
       -0.06514158169994286 -0.2633430563976641
000190 00 00 00 e0 70 b2 dd bf 00 00 00 40 36 5a df bf
       -0.4640161693096161 -0.48988109827041626
0001a0 27 cf 43 a7 37 b9 b1 bf 60 a5 32 42 77 49 e0 bf
       -0.06923244317641473 -0.5089679997374041
0001b0 00 00 00 40 01 14 cd bf 00 00 00 80 5a d2 e0 bf
       -0.22717300057411194 -0.5256779193878174
0001c0 00 00 00 40 f4 f4 cc bf 07 8c 43 e6 cf db dd bf
       -0.22622540593147278 -0.4665412663145507
0001d0 b8 d7 6a 9f 62 1d d1 3f 54 99 99 2e c8 82 dc 3f
       0.2674185330209826 0.4454822974279484
0001e0 00 00 00 40 74 2e cc bf 7b 00 97 02 b8 0d c8 bf
       -0.22016766667366028 -0.18791866423089573
0001f0 95 40 2c 95 ad b5 c5 bf 33 ed bf d8 f3 89 d1 bf
       -0.1696068743117435 -0.27404495398487255
000200 00 00 00 e0 14 80 d3 bf 33 ca fd 34 98 a0 d3 bf
       -0.30469247698783875 -0.3066769139760794
000210 e9 7f df 4e 0a 72 df bf 00 00 00 a0 9c 9e d4 bf
       -0.4913354654545388 -0.3221808969974518
000220 d2 e6 8c e7 c9 85 de 3f 6d 4b 4b 56 0e 89 d0 bf
       0.47691581356376134 -0.2583652346340191
000230 73 16 3d 90 47 b2 a9 bf c5 9c 84 98 ef 77 ac 3f
       -0.050188289983037836 0.055602538459703456
000240 e8 ce b1 94 42 63 d2 3f ae 7d 85 44 e6 ea b8 3f
       0.2873083545775743 0.09733428166281641
000250 01 86 df 78 b1 90 d4 bf c7 d3 27 9a 83 ef c3 3f
       -0.3213313751603835 0.15574688937308975
000260 7c ad 73 1b a5 af d2 3f aa dc 3d e8 95 7b c8 bf
       0.2919705169758442 -0.191271532439463
000270 81 c4 7d be d7 d7 c6 bf 00 00 00 40 fe e9 df bf
       -0.17846199799854293 -0.4986568093299866
000280 1a b3 bb 55 a6 35 d1 3f 00 00 00 40 d8 47 e1 bf
       0.2688995206106469 -0.5400201082229614
000290 52 51 de cd b3 50 d8 bf 19 af 1b 3e c4 6c c6 3f
       -0.3799256811555739 0.17519429237960862
0002a0 00 00 00 20 64 bf e0 bf 28 19 04 8c bd ff c6 3f
       -0.5233631730079651 0.17967957817763502
0002b0 b8 d6 df 47 16 17 c0 bf 14 6b eb f3 3e c1 d8 bf
       -0.12570456037035682 -0.3867947942759866
0002c0 11 00 f0 a9 80 83 b0 bf 00 00 00 00 63 37 bc bf
       -0.06450657032837649 -0.11022013425827026
0002d0 00 00 00 80 77 c2 c2 bf 00 00 00 00 43 bc dd bf
       -0.14655965566635132 -0.4646155834197998
0002e0 00 00 00 40 e5 de c0 bf c6 54 70 8e 0d cd c5 3f
       -0.13180223107337952 0.17032021956462112
0002f0 4e 85 ca a9 e8 6d df 3f 19 5e 49 a2 c8 4e ce 3f
       0.49108330327188277 0.23677928852224353
000300 00 00 00 00 02 60 d7 bf 5e 55 37 c2 26 da b3 bf
       -0.3652348518371582 -0.07754747621159683
000310 00 00 00 00 c2 d0 d2 bf 77 92 46 0c 5a b2 b7 bf
       -0.2939915657043457 -0.09256518172930749
000320 80 51 57 4e e8 d0 37 bf 00 00 00 c0 27 4d d6 bf
       -0.0003634040025109128 -0.3484591841697693
000330 26 97 49 cd 4f 3d d9 bf 44 6f 1c 35 08 2d 7c bf
       -0.3943671707878472 -0.006878883419428498
000340 00 00 00 80 6a 55 db bf 6c ac a3 0d dc 8a c7 bf
       -0.4270883798599243 -0.1839251581762683
000350 5b ac ab 94 3f 04 9e 3f 10 2c 94 ac 8c fd e1 bf
       0.02931308121598551 -0.5622008677177082
000360 ff 11 39 94 1b c1 d2 3f 63 58 86 46 05 18 d8 3f
       0.2930363605012473 0.37646610152422094
000370 1f 7b a6 92 e1 50 d7 3f 00 00 00 a0 75 f0 e1 bf
       0.3643115932590479 -0.5606029629707336
000380 00 00 00 c0 94 51 d3 bf 00 00 00 00 ac ed d4 bf
       -0.30185431241989136 -0.32700634002685547
000390 fb a1 6d 08 08 27 d4 bf 7f 4f 22 be c5 82 e2 bf
       -0.314882286291805 -0.5784634316973863
0003a0 bb 9b de 03 0a 67 a3 3f 36 14 bf 3b d2 8b a3 3f
       0.03789550111041914 0.0381761262829418
0003b0 72 57 0c 75 f4 a1 d8 3f 00 00 00 e0 67 d0 e0 bf
       0.38488494329919043 -0.5254401564598083
0003c0 c8 24 e3 5a 14 78 dc 3f e0 24 53 e3 4f 44 d5 3f
       0.44482907176695763 0.3322944374054497
0003d0 12 1e d5 c0 ca d4 d5 bf 00 00 00 00 4f 5c c7 bf
       -0.34111279326722965 -0.1825045347213745
0003e0 11 00 3e 9f d9 67 d7 3f 6d 71 bf b6 4f b1 dd 3f
       0.36571350623126003 0.46394722792117343
0003f0 a6 26 ac 37 1a 32 dc bf 1a 3c 8d e3 5b 33 d5 3f
       -0.4405580085445798 0.3312597009834818

weight f8 [64, 128]
000000 00 00 00 60 83 ae b3 3f c8 7e 4f 0c f8 a6 8b bf
       0.07688160985708237 -0.01350206172531844
000010 57 56 67 36 3e 88 94 bf 0b 91 73 c2 e8 72 70 bf
       -0.02005097586682888 -0.004015835969060309
000020 f9 c1 2b 8e 6e 5e 67 3f 6b 48 24 e5 93 87 af bf
       0.002852645805767159 -0.061581250878717984
000030 eb 68 1f f1 10 85 e3 bf 62 e1 d9 d0 d3 e6 f0 bf
       -0.6099934300830488 -1.056354347061721
000040 1b 0c 7c 16 a4 69 64 bf dc d7 8f 34 01 6f b2 bf
       -0.0024917797890125055 -0.07200629742860037
000050 67 1c 8b 0b bc f4 9a 3f d5 f7 2c 2b 12 06 c4 bf
       0.02632421322303138 -0.15643527134119375
000060 cd 23 a8 d5 25 be b3 bf 97 21 5d b7 16 c4 9c bf
       -0.07712017503958109 -0.028091769162786297
000070 5b ab 1e ec 90 b3 84 bf cb b8 64 e2 3f 92 80 bf
       -0.010108120160870085 -0.008091448875884663
000080 ae f0 c8 26 93 72 8b 3f 90 3e e7 04 09 3d ad bf
       0.013402127858278181 -0.0571062868581268
000090 fa 9f a3 d4 e7 ad 82 bf e2 49 b2 b4 51 de 5d 3f
       -0.009120761086208507 0.0018230245503089095
0000a0 5a a2 33 4c 87 9d 5b bf 00 00 00 00 17 ab 96 3f
       -0.0016855069414366737 0.022137030959129333
0000b0 00 00 00 a0 b0 2a a9 bf 00 00 00 00 d9 36 93 bf
       -0.04915382340550423 -0.018763914704322815
0000c0 94 54 61 fb b9 fe a6 bf 28 04 16 60 aa 0b c6 bf
       -0.044912158905085736 -0.1722310036821295
0000d0 00 00 00 e0 fc c8 b2 3f 12 bd 80 41 fb aa cd bf
       0.07337933033704758 -0.231780440315085
0000e0 c1 cd 51 0b 38 da 73 bf 00 00 00 00 38 fa 8a 3f
       -0.004846781656954347 0.013172566890716553
0000f0 cd 44 44 83 20 7f 9f 3f 00 00 00 a0 a6 65 b2 bf
       0.030758388530618675 -0.0718635693192482
000100 02 20 1a 4c 46 f5 e2 bf a8 e9 e9 5f fa b4 9f bf
       -0.5924407469146902 -0.030963813881024344
000110 34 b8 78 2b 08 64 a9 3f e5 d5 0d a9 7b 80 99 3f
       0.04959130793245983 0.024904186433067372
000120 00 00 00 a0 e9 59 b3 3f 88 2e 69 24 4d 36 55 bf
       0.07559070736169815 -0.0012946847288216896
000130 00 00 00 40 39 f3 aa 3f eb 8c a0 11 15 95 9b bf
       0.052636899054050446 -0.02693589134299838
000140 00 00 00 40 7a 9a af 3f 8e 4c 32 4c 71 5b 4e 3f
       0.061725445091724396 0.0009264281474251777
000150 20 f4 fa 58 51 5d b1 bf 00 00 00 80 3e 81 9a 3f
       -0.06783016607637693 0.02588365226984024
000160 02 c0 19 bd d7 5a 97 bf 0c 2e 73 72 c5 28 63 bf
       -0.02280747501066572 -0.0023387771976553003
000170 a1 3a 42 b8 93 84 7a 3f 00 00 00 00 dc af 67 3f
       0.006474091558756585 0.0028914734721183777
000180 99 cf 8d 55 fc bb 74 bf 98 99 d9 de cf e9 b9 bf
       -0.0050620896152969936 -0.10122393789933992
000190 00 00 00 80 a2 18 9c 3f 00 00 00 00 b8 e7 69 3f
       0.027437724173069 0.0031622499227523804
0001a0 52 51 e1 06 96 3c 85 bf f9 c9 cc c6 b1 67 87 3f
       -0.010369464955296923 0.011428250197785582
0001b0 00 00 00 c0 45 0c b5 bf 00 00 00 00 97 c3 95 3f
       -0.08221851289272308 0.021253928542137146
0001c0 00 00 00 a0 8d 3c b1 3f ab ca 66 5c 54 f1 a1 3f
       0.06733021885156631 0.035044323234065665
0001d0 bd bf 40 72 a1 2d d7 bf 6c ac 88 90 82 04 a6 bf
       -0.36216007382881427 -0.043003158705993666
0001e0 00 00 00 80 36 ca a4 bf 14 19 d1 e1 f4 8d 6c bf
       -0.04060526192188263 -0.0034856589177564377
0001f0 cf 2d 65 db ee 18 95 bf 88 39 73 ad e6 95 a3 bf
       -0.020602924481222303 -0.03825302951155424
000200 00 00 00 e0 79 38 b0 3f 4b 79 34 bc d8 4d e0 bf
       0.063361756503582 -0.5095027614477571
000210 f3 1e 48 aa 46 b0 b7 bf 00 00 00 00 b1 e7 94 bf
       -0.09253350884693727 -0.020415082573890686
000220 7b 3f d1 03 b3 57 92 bf e1 b8 59 76 7e ff a3 bf
       -0.017912671192163537 -0.0390586394758985
000230 f7 a5 8a 0e 73 84 a1 bf e3 e8 a8 7e 70 87 88 bf
       -0.03421363403806404 -0.011977080216741992
000240 e1 7e 4c 4e ae 93 e4 bf 81 8e 38 74 3a 66 a3 bf
       -0.6430274514459279 -0.03788931530678231
000250 a9 14 52 32 e6 bd d1 bf 59 b2 be 65 d1 6e 6d bf
       -0.27721552766917995 -0.0035928811830301774
000260 4e b5 a1 80 39 78 9e bf cb 10 43 31 03 aa c9 bf
       -0.02975549552541184 -0.20050086884851334
000270 61 31 bf f2 1f d7 7a 3f 00 00 00 00 00 4e 65 3f
       0.006552815244458139 0.0026006698608398438
000280 5b 1f 26 5e f5 1b e1 bf 00 00 00 e0 b7 a8 a9 bf
       -0.5346628989072814 -0.05011534318327904
000290 ac f5 2d cd b1 b5 cb 3f 40 b2 a3 b5 57 da b1 bf
       0.2164823772290395 -0.06973789391094787
0002a0 00 00 00 60 05 02 b2 3f ed 69 27 65 03 35 b1 bf
       0.07034333795309067 -0.06721516818598845
0002b0 65 7d c7 5a 55 9d 76 bf c7 03 1f 28 42 61 9c bf
       -0.005521138588363205 -0.027714761446762794
0002c0 f5 eb 8b 2a 2a e9 c1 3f 00 00 00 e0 59 4a b5 3f
       0.1399281223055763 0.08316575735807419
0002d0 00 00 00 20 03 d4 b0 3f 00 00 00 00 9b 7d 9f 3f
       0.06573504954576492 0.03075258433818817
0002e0 00 00 00 00 60 00 88 3f ff e1 06 6f d6 84 51 3f
       0.011719465255737305 0.001069268615635832
0002f0 de 94 02 fc 4e 4d 8a bf ac f6 5c 94 cd 63 6a bf
       -0.012842766824471882 -0.003221417925401612
000300 00 00 00 c0 c2 0f ab 3f 27 c9 59 8d 8d a6 d4 bf
       0.052854619920253754 -0.322665584600275
000310 00 00 00 00 ea 97 7c 3f af 2c cf 16 4e 49 8a bf
       0.006980814039707184 -0.012835130759319162
000320 5b 8a 24 84 b6 e5 bd bf 00 00 00 00 48 41 85 bf
       -0.11678639150753993 -0.010378420352935791
000330 22 05 12 71 7c 78 81 bf 39 85 f0 d3 5c eb 97 3f
       -0.008530590248713003 0.02335877460075617
000340 00 00 00 00 70 41 64 3f 5d 86 4c 79 cd 80 87 bf
       0.002472609281539917 -0.011476140274285724
000350 8e 1e 14 ab 48 9d 79 bf 6a c2 c4 d5 2a 5c 95 bf
       -0.0062535132030984274 -0.02085940294017733
000360 ac 3f 9d 43 7b b9 dd bf 6a 6d 6f 8c ea 1d 3e 3f
       -0.4644458923621595 0.0004595468166692292
000370 94 0e 01 b5 7c ab 99 3f 00 00 00 00 f7 68 8b bf
       0.02506823401223686 -0.01338379830121994
000380 00 00 00 40 52 1d a4 3f 00 00 00 00 64 b3 76 bf
       0.03928620368242264 -0.005542173981666565
000390 d7 a0 0a 62 05 20 b9 bf 12 df 6c 5e 31 71 ba 3f
       -0.09814485210029332 0.10328968577675493
0003a0 d1 74 8b 8f bf 91 85 bf a2 8f ac 25 14 d7 29 bf
       -0.010531899040353928 -0.00019714470803322304
0003b0 ff 69 a7 28 c3 24 a4 bf 00 00 00 20 b9 fa a9 bf
       -0.03934297438873457 -0.05074099078774452
0003c0 24 b4 cf 1e 3d df 63 bf 03 59 2b 25 4e 42 a9 bf
       -0.002425784469315422 -0.0493339939472879
0003d0 e6 25 19 4c 7b fd 90 bf 00 00 00 a0 aa 0c b6 3f
       -0.0165919556805302 0.0861307755112648
0003e0 25 d7 f2 3d 4d b5 50 bf 67 57 b6 8e 7e 5d c9 bf
       -0.0010197882000233052 -0.1981657215916883
0003f0 bc 59 e5 fd e9 bc 70 bf bf b9 a8 9b d7 2a 90 bf
       -0.004086412458795537 -0.015788430095364122
000400 00 00 00 00 44 ad 8e bf e9 29 d3 12 89 53 b8 3f
       -0.014978915452957153 0.09502464971152559
000410 ea b6 2c 2c ba 51 73 3f c0 a9 60 cf ad 00 6a 3f
       0.004716613041450416 0.0031741518714813732
000420 b3 e9 b1 5b b7 4e c1 3f 60 6d 1d e4 00 59 89 3f
       0.1352147290925366 0.012376791917339147
000430 93 01 78 8a 88 de 68 bf 08 3c be 52 45 32 a8 3f
       -0.00303579967635432 0.047258535719372274
000440 34 d6 5a 65 44 03 79 3f 4e a4 8b 49 e4 20 cb 3f
       0.006106631442596423 0.21194127646529853
000450 f6 30 19 d6 23 f6 d0 3f b0 01 ed 48 62 96 bc bf
       0.26502319248244477 -0.11166967659392557
000460 43 2e 90 af 9f 42 bc 3f 03 07 0c b2 f3 bd a2 bf
       0.11039159809313852 -0.03660546825814317
000470 6d 22 7c 27 b7 e9 5e 3f 87 3b 6c d6 04 40 66 3f
       0.0018867767921070492 0.00271607346383668
000480 e8 1c 0b bd a6 d9 9f 3f 5c 92 b8 ae 2f 2b 6d 3f
       0.0311037114031735 0.003560631875887217
000490 b4 0e 21 e0 2a 96 96 bf 74 c0 d2 d3 be 19 af 3f
       -0.022057218484646327 0.06074329696400663
0004a0 2a 33 ab 05 e0 05 70 3f 00 00 00 80 ff 05 af bf
       0.003911852919100048 -0.060592636466026306
0004b0 00 00 00 e0 6b 10 b2 3f 00 00 00 00 c3 67 9a 3f
       0.07056307047605515 0.025786444544792175
0004c0 fc 8f 03 f9 26 62 3c 3f d5 3b 4b 64 63 03 c3 bf
       0.0004330964229792842 -0.1485409011570186
0004d0 00 00 00 00 7f 5f 9a bf 9c 73 77 42 dd ab 9e bf
       -0.025754913687705994 -0.029952485257911485
0004e0 d5 90 63 c8 2d bd b0 bf 00 00 00 80 9f 82 92 bf
       -0.06538663999851065 -0.01807641237974167
0004f0 b4 ac 1e 63 28 b0 8a bf 00 00 00 a0 29 81 b6 3f
       -0.013031306767365393 0.08790836483240128
000500 f7 65 67 c8 f0 07 c1 3f bb 95 58 e7 e2 8f 60 3f
       0.13305482659670506 0.002021735354690716
000510 51 8d 74 a4 1d 55 9c 3f c8 35 ea 61 4f a3 8d 3f
       0.027668440973809997 0.014471645522713752
000520 00 00 00 80 b7 50 9a 3f 9d c0 ba 8a 39 58 40 3f
       0.02569853514432907 0.0004987984625213386
000530 00 00 00 00 c4 e1 90 3f 70 53 e8 e3 eb 43 8c bf
       0.01648622751235962 -0.013801424877820628
000540 00 00 00 e0 d9 7f a9 bf e8 79 29 72 7c 74 63 bf
       -0.04980355128645897 -0.0023748808464880596
000550 e7 8c 18 22 32 00 99 bf 00 00 00 20 ec cf b3 bf
       -0.024414809542702278 -0.07739139348268509
000560 6c 83 bd d4 4a 3e 61 3f 3e c1 06 31 30 04 a3 3f
       0.002104898599938945 0.03714132879702213
000570 20 7d a6 b2 6a ed b9 3f 00 00 00 40 9e c3 a7 bf
       0.10127894269543392 -0.0464143231511116
000580 f9 71 f3 7f 9b 31 59 3f 6b d7 10 94 ed ce a4 3f
       0.001537706237107915 0.04064123566096963
000590 00 00 00 60 0b 28 b6 3f 00 00 00 00 e6 b5 88 3f
       0.08654852956533432 0.012065693736076355
0005a0 02 68 11 1a 24 86 a2 bf 88 f8 9c bc 8b d3 b0 3f
       -0.036179664785507284 0.06572793345273642
0005b0 00 00 00 a0 b1 61 b6 3f 00 00 00 c0 10 0b b1 bf
       0.08742818981409073 -0.06657509505748749
0005c0 00 00 00 00 9e 9e 7e 3f 54 46 8a f3 5e 11 a9 3f
       0.0074754878878593445 0.04896065447713896
0005d0 88 c9 58 02 81 ee a8 3f df 5f 88 a1 cf 4a 7b bf
       0.048694640671231915 -0.0066631422601161885
0005e0 00 00 00 40 70 3b b4 bf c7 9e e4 62 73 29 91 bf
       -0.07903195917606354 -0.016759684477760908
0005f0 c9 5d e7 55 70 11 de bf 3b f1 54 f3 32 d4 d1 bf
       -0.4698143805412341 -0.278576600674359
000600 00 00 00 00 26 80 71 3f 8b bb d1 c7 76 76 ab bf
       0.0042726024985313416 -0.05363818349075363
000610 b7 5b 68 e5 cf 4f a7 bf 00 00 00 00 76 f1 99 3f
       -0.045530792955268344 0.0253351628780365
000620 42 ad 07 da 84 3d 5d bf cc da 70 3e ae 60 a8 3f
       -0.0017846867923435182 0.04761261474816578
000630 d2 09 37 bc c9 42 bd 3f fe e0 d0 8b 08 1c 98 3f
       0.11430035443394296 0.023544438871085475
000640 56 1c d7 5d a5 a2 b0 3f 2e 60 7d fb 27 b3 80 3f
       0.06498178044340483 0.00815421329723173
000650 44 81 d3 39 49 80 a6 bf ce 4b c9 c5 be 0a 60 3f
       -0.04394749480138896 0.0019582487132452147
000660 9e 41 53 bc 52 d2 b4 bf 38 67 f4 42 7a e1 cc bf
       -0.08133427713187877 -0.22563102978966199
000670 20 98 01 5d 14 00 ce 3f 00 00 00 80 21 22 94 3f
       0.23437742749519064 0.019661448895931244
000680 fa 75 37 98 45 61 4b 3f 00 00 00 a0 e7 d1 b1 3f
       0.0008355703179707124 0.0696091428399086
000690 96 08 1c 8c 3e 27 cf bf 2d af a9 67 68 dc 68 3f
       -0.24338514176640008 0.003034786144146559
0006a0 00 00 00 a0 c8 27 b3 3f 45 92 c5 9c 00 18 b0 3f
       0.07482580095529556 0.06286624743877052
0006b0 55 81 bc 80 f1 fc b5 bf 61 f4 f9 04 5d ad c6 bf
       -0.08589085953690774 -0.17716562979686315
0006c0 9f 26 59 12 89 93 b2 3f 00 00 00 80 6c 3e a3 bf
       0.07256371210055555 -0.037585631012916565
0006d0 00 00 00 40 6c 31 af bf 00 00 00 20 5f 24 b3 3f
       -0.06092394143342972 0.07477373629808426
0006e0 00 00 00 00 bb 5b 81 bf e8 2d a7 55 93 3c 64 3f
       -0.008475743234157562 0.0024702909115370437
0006f0 90 70 83 2c 93 f4 74 bf ce fe b9 74 1d 03 81 3f
       -0.005116057298632751 0.008306722759925302
000700 00 00 00 c0 2f ba a9 3f d8 1a a4 9c ca 31 c1 bf
       0.05024861544370651 -0.13433201454628008
000710 00 00 00 40 d1 31 a2 3f f8 cd 65 e3 79 1f 81 3f
       0.035536326467990875 0.008360817196012768
000720 7d f2 a0 ef 31 1c e3 3f 00 00 00 00 43 ae 8e 3f
       0.5971917801139878 0.014980815351009369
000730 ea c2 73 08 7b 8e dd bf bf 94 16 c6 3f e8 91 3f
       -0.46182132554444755 0.017487522569031407
000740 00 00 00 00 1b 12 b1 bf 73 8e a5 e8 ef e2 95 bf
       -0.06668251752853394 -0.02137350900137709
000750 e2 3a c6 c8 b6 3a 84 3f b7 a0 47 ec 16 1f cf bf
       0.009877613069674 -0.24313627755259912
000760 72 cf cf 4e bf 6d a8 3f c6 89 a7 69 2c 56 63 3f
       0.0477123054223786 0.002360426658229306
000770 42 5b 8b 4f 17 d5 a1 3f 00 00 00 00 5a 9d 76 3f
       0.03482888074875358 0.005521155893802643
000780 00 00 00 40 c0 b3 b0 bf 00 00 00 a0 c5 8d ae bf
       -0.06524278223514557 -0.05967538431286812
000790 f0 5a 13 fe ad 57 b2 bf b7 03 68 53 9b 11 b0 3f
       -0.0716503854085706 0.06276865755354676
0007a0 18 9c 3b 9c 60 f8 6a 3f d3 95 67 d6 64 de 46 3f
       0.0032922636909122997 0.000697898137158754
0007b0 e8 d0 80 79 91 28 95 bf 00 00 00 e0 7f 24 b1 bf
       -0.020662568131414455 -0.06696318835020065
0007c0 99 d4 a4 87 17 1f 73 3f 05 ac 7e 34 81 78 52 bf
       0.004668323434363541 -0.0011273633735793276
0007d0 9d 36 f6 ac bf f6 ad bf 00 00 00 00 00 95 51 bf
       -0.058523168433663765 -0.0010731220245361328
0007e0 5f 81 70 0c 53 54 3d 3f aa c8 e7 69 f4 3a 53 bf
       0.0004475310092306918 -0.001173723874327718
0007f0 fa ea 1f 8c ac 7b d1 bf 5b bf 15 71 55 0f 52 bf
       -0.2731734627156325 -0.0011022886650060213

bias f8 [64]
000000 6f c3 9a 8d e9 8c ad 3f b2 17 d0 58 53 88 88 3f
       0.05771570066042996 0.01197877039704651
000010 99 97 99 6e da 2f 8f bf e0 a8 6e 1e f4 8a 5b 3f
       -0.015227991581195076 0.0016810783360861545
000020 40 fc d0 4a 1b 39 b8 3f f6 8d ce bb 0b 6b a3 3f
       0.09462137772151014 0.037926069903985324
000030 81 5a d3 5c 13 bf af bf ea 00 ae ab fb 8d 65 3f
       -0.06200466640591618 0.0026311793748733285
000040 e3 f8 a9 92 48 ba 81 3f 93 4c 19 70 fc e2 5b 3f
       0.008656088805988954 0.0017020669187289047
000050 47 ab 13 f1 64 bf 87 3f 0e 5a 64 80 b2 4e b5 bf
       0.011595524413186132 -0.08323207506723682
000060 35 cf 20 23 6b 9c 9b 3f a8 26 0d 2e 87 20 8d 3f
       0.026963876742413368 0.014222198574901881
000070 92 3a 1c 31 78 6d bb bf 90 6c 79 ef 83 47 ac 3f
       -0.10713912199956102 0.05523311899443073
000080 ef 93 67 cf 8e a9 8d 3f b9 2f a9 c5 49 6f 51 3f
       0.01448356218765842 0.001064130824164329
000090 e3 5d 22 a4 f9 99 a3 3f 3c e0 f3 21 56 48 45 3f
       0.03828411224929675 0.0006494923181028576
0000a0 8b d3 18 fb 69 36 94 3f 91 10 17 c9 e6 ae a8 3f
       0.01973882289003685 0.048209392592554974
0000b0 17 6a d8 ca d7 47 9d 3f e4 2c d6 1c b0 2b b5 3f
       0.028594371562670497 0.08269787506121734
0000c0 43 36 d0 fd 45 be bc bf 55 72 02 5a c9 66 9c 3f
       -0.11227834173788502 0.02773584949373949
0000d0 87 1b d7 68 f1 59 a8 bf 78 f8 90 30 a9 ca bb bf
       -0.04756121067798973 -0.10856110988331291
0000e0 91 36 36 8a b9 6d a1 3f 4f 93 e7 27 ea ca ac bf
       0.03404025852351567 -0.05623561608425708
0000f0 88 3d e2 e2 51 00 9d 3f 2a 7c d1 d4 cd 08 9a 3f
       0.02832153270042917 0.02542420970382523
000100 f7 b4 99 43 47 2f 9f 3f ec 62 5d d4 ce 0f 55 3f
       0.03045379018879132 0.001285507184965502
000110 89 3a e1 23 85 53 82 3f a6 ab b7 16 39 d7 9f bf
       0.008948364407982428 -0.0310944481006278
000120 5b 80 0e 1e e5 cb a1 bf cb 84 dc d4 56 d8 7f 3f
       -0.034758720320724655 0.007774676499850484
000130 44 d0 f5 d8 7d f0 ae 3f 3b 2e 7f 52 dc 9b b2 3f
       0.06042855523529103 0.07269074453432094
000140 99 c2 46 5f 76 af ac 3f f1 0a 21 0a be 3a b0 3f
       0.05602617180864406 0.06339633700649096
000150 90 0e 13 e3 a8 9f ad 3f 29 85 13 43 f4 d3 7a 3f
       0.057858731955574005 0.006549791477682456
000160 b6 18 02 7a c3 27 a3 3f 1e d9 97 ba 05 da 97 3f
       0.037412747043207004 0.023292626870863413
000170 21 ea 3d 69 54 67 ad 3f 28 6d 96 11 14 55 a2 3f
       0.05742896828356359 0.03580534662907048
000180 a6 2a d1 b2 7b 60 a8 3f 0d d4 49 73 4b 98 8d 3f
       0.04761110837769893 0.01445063539106608
000190 df f4 b6 d0 06 f0 aa 3f 19 55 3a 1c b2 31 af 3f
       0.05261250779902026 0.06092602343157178
0001a0 ae 88 d6 f4 b2 9d 96 3f 93 4e 0b 3f 03 ab b0 bf
       0.022085949128844255 -0.06510944642223597
0001b0 ae e0 9c f8 45 50 a9 3f 38 95 f9 9c d7 43 bb bf
       0.04944056186508426 -0.10650394041438893
0001c0 b3 09 7b 1d a7 b7 ad bf 6e 03 24 58 be d9 b4 3f
       -0.05804178461905298 0.08144750263092046
0001d0 f4 9f 3d d7 71 79 a0 3f bd 0e c7 da 61 5d 47 bf
       0.032176549458028975 -0.0007130363279021706
0001e0 01 7d cc 81 3d 55 5d bf 7f 99 5c 5f 3f c5 90 bf
       -0.001790342393355904 -0.016377439685265834
0001f0 ca 91 94 53 82 3d b4 3f 15 49 e9 4a 65 a7 af 3f
       0.07906355419669989 0.061824002642099675

weight f8 [2, 64]
000000 a6 7b 9b 0a d3 4b ad bf 54 f3 04 c4 8c c1 72 bf
       -0.057219119114726255 -0.004579114786164979
000010 a7 64 db cf c3 0c c2 bf 98 2c 00 c1 3a b4 7c 3f
       -0.14101455353992273 0.007007817752319977
000020 61 8e c4 df 54 a3 93 bf 42 32 42 1d 81 17 b5 3f
       -0.01917774787683724 0.0823898979599074
000030 fe df 19 ef fc f0 aa 3f 90 28 66 1a 0d 80 d1 bf
       0.05261984270777019 -0.2734406240275655
000040 56 21 4e 91 df 58 8c bf d2 c7 d3 c8 1b 38 be 3f
       -0.013841387388098408 0.11804364827165095
000050 6a 21 24 86 14 7b 86 3f 3f 7e 39 e8 7e 3d a4 bf
       0.010976944297468722 -0.03953167519352662
000060 15 4d 39 fd fc e4 97 3f 10 c6 e5 9f 76 84 97 3f
       0.023334458308750323 0.022966245183345946
000070 1e 26 f7 60 4f cb 7b 3f 9b b4 55 31 18 76 a1 bf
       0.006785688470196697 -0.03410411455374992
000080 a6 02 a8 96 b4 96 72 bf 6d f7 50 b7 ae 74 78 3f
       -0.004538255142052227 0.005970652088817957
000090 cc ea e5 db f4 5b b1 3f b6 ce fc 85 41 be 85 bf
       0.06780939453703211 -0.010616790677523507
0000a0 ca 47 d5 bf cb 26 79 bf 32 6c 81 cf 99 12 ac 3f
       -0.0061405142744934225 0.05482941301371404
0000b0 e3 ab ba e3 62 36 b3 bf 3f 60 f1 96 6c 85 86 bf
       -0.07504861888689578 -0.010996673923884369
0000c0 30 ac c8 5a 98 8f ae 3f c9 9f 00 e6 ce e7 9a 3f
       0.05968929393960598 0.026274903095469235
0000d0 80 29 1c 65 6e 96 aa 3f 62 d6 71 b5 eb 7e 85 3f
       0.051928949205904296 0.010495988344909783
0000e0 7a 10 b3 aa 0a b4 a1 3f f3 7c 73 8e ab 19 d1 3f
       0.03457673391088263 0.26719178115122516
0000f0 3f 9b bd 7c ee 62 b7 3f 67 4b 88 cd 5b 30 be bf
       0.0913533262770274 -0.11792539375191567
000100 8e f2 04 52 cd 44 b8 bf 24 5f ba cd 4b ea a5 3f
       -0.09479983570504144 0.04280316244438456
000110 43 00 1f 33 29 cc 8d 3f 5a a4 c6 1b 04 17 d6 bf
       0.014549562332717985 -0.3451547881364313
000120 d9 b5 36 e8 16 6d ce bf ec 11 a2 99 7a 6a 70 3f
       -0.2377041467529313 0.004007796198611118
000130 3e 6d 94 e1 62 16 a5 3f 4b b4 87 a2 8c 5f a9 3f
       0.041186418568225566 0.04955710872659632
000140 12 7c 02 e8 b7 95 ad bf 34 28 a7 49 ff ae b5 3f
       -0.05778288561963775 0.08470149562995816
000150 5b 8c b0 aa 75 09 a0 3f 9b af e8 0f c9 2f c1 3f
       0.031322171293390176 0.1342707946472473
000160 da 5a b3 69 71 42 c1 3f f1 5a f5 66 fc 26 b1 3f
       0.13484018002664905 0.06700112832673334
000170 d4 55 74 14 59 5a b2 bf 1a b2 08 7d 83 90 a4 3f
       -0.07169110059142919 0.04016505147260237
000180 49 0f 46 56 14 56 ab bf e3 a8 b5 0d ce d4 81 bf
       -0.0533911090197124 -0.00870667437876133
000190 f6 2f 5a 53 2f dd 8d bf 12 fb 11 d6 42 84 c0 bf
       -0.01458203290101066 -0.12903628780983262
0001a0 16 cb a9 53 9e 05 b7 3f 13 df 1e a8 81 31 bb bf
       0.08992948095855655 -0.10622415880686402
0001b0 0d 77 dc 41 8a ba 97 bf 89 37 73 f1 8a ef a4 bf
       -0.023172531385276907 -0.04089006612194541
0001c0 4f 61 0b ee 2b aa 8d 3f 7a 15 a0 e9 73 ae c3 bf
       0.01448473282054921 -0.1537613764523192
0001d0 ad 84 b7 c9 a9 d2 b5 3f 2e aa 82 7b 85 7f 75 3f
       0.0852457158539603 0.005248567024106294
0001e0 0e da a1 2a 78 02 82 3f da e7 65 1e 0c ad a1 3f
       0.008793772507698552 0.03452337142057589
0001f0 84 1f 05 49 d6 83 99 bf 34 28 62 de c9 57 9e bf
       -0.024916980940616465 -0.02963176173992839
000200 29 a2 de ff 75 a3 9f bf 3a 52 d4 dc da d9 90 3f
       -0.03089699148373107 0.016456050613742536
000210 4a eb 91 2a 7d 32 9c bf 11 c9 58 9f 77 1f 90 bf
       -0.0275363499863304 -0.015745038128621994
000220 72 b0 9e b7 1e 0a ac 3f ac bd d5 82 d0 6f 94 3f
       0.054764709391151536 0.01995778845360767
000230 67 6a 3a d5 42 9e a5 bf d8 af 40 31 41 4b ab bf
       -0.04222306111224299 -0.05330852247456591
000240 1f d8 51 c4 76 9d a4 3f 1c 02 b3 f8 e8 98 ae bf
       0.04026385447006952 -0.05976036105994728
000250 dc 07 77 4b e9 d9 9d bf b2 34 fa 82 8b 84 b6 3f
       -0.029151578169837808 0.08795997569741834
000260 5a 55 e4 4c 05 fb b2 bf ea e8 bc 08 4a 86 b3 bf
       -0.07414277198070832 -0.07626784051254601
000270 0a 3f 70 91 40 6e b6 3f 4e 33 d9 11 a3 48 ba 3f
       0.08761981535667132 0.10267085252526195
000280 80 1d 05 00 3a a3 91 3f a5 14 bb 92 cc 38 8e bf
       0.017224222422809188 -0.014756773212307126
000290 a7 20 fb 69 05 00 93 3f 5e c7 6c 37 1a be a0 3f
       0.01855476817471016 0.03270036627362914
0002a0 ba 4b b0 61 d1 a5 8a 3f 6e 5c fe 43 5c 50 c5 bf
       0.013011585038872887 -0.16651490516662498
0002b0 cc 9b 16 82 aa 69 89 bf f0 ed 94 cf 86 7a a0 3f
       -0.012408573241215047 0.03218480380970934
0002c0 a2 b1 64 c7 6f 6d a2 3f 42 54 f4 53 db 39 b6 bf
       0.0359911852741306 -0.08682032394092778
0002d0 d3 03 2e 79 87 73 9f bf 40 e3 40 2c c1 04 9c 3f
       -0.0307141463958976 0.027361887289063747
0002e0 97 6d 9b bf 87 bf bb bf ae c7 52 c0 43 55 72 3f
       -0.10839126994999614 0.00447584596001775
0002f0 60 f2 74 cc f2 6a 35 3f 9d 9c 68 fc 10 f0 98 bf
       0.0003268091936268532 -0.024353280454445615
000300 cd 97 24 c6 01 83 b8 3f d9 55 cd b9 44 fa 82 3f
       0.09574900710558083 0.009266411705236276
000310 d9 e0 a5 f0 b5 d2 a6 bf 63 ed 83 e4 73 d3 b0 bf
       -0.044576345087024634 -0.0657265122317106
000320 98 83 a9 4f d3 3c a6 bf 37 71 3c d7 27 e6 85 bf
       -0.04343281123579529 -0.010692893272385191
000330 08 b4 2b dd 39 03 c2 bf 03 3e 23 f5 5e d6 c9 bf
       -0.14072345065451963 -0.2018545815430884
000340 93 db 3b ce 85 43 84 bf a2 95 d7 c4 b5 51 d3 bf
       -0.009894414287811936 -0.30186218474258386
000350 ba 2c 26 bb 9e a5 b9 bf 65 ea 70 d2 86 49 9f 3f
       -0.10018341130323707 0.030553919405273428
000360 e5 12 e8 f9 a3 08 8b 3f e6 99 3e 63 e4 92 91 3f
       0.01320007425693732 0.017161911542325735
000370 9c c7 90 bc f2 50 98 bf cc f8 49 6a 4e c7 bf bf
       -0.02374629283821826 -0.12413492293305523
000380 e8 14 d4 b0 01 c7 c3 3f 12 9c 8b 39 bb f4 96 3f
       0.15451069959832542 0.02241795099953598
000390 1a 83 00 09 86 91 a7 3f 4c c0 c0 21 c0 86 d6 3f
       0.04603213176620198 0.3519745187395571
0003a0 0c 43 1c 9f 1b 11 72 3f 20 5c 9e fc 8c 23 b1 bf
       0.004410846611577989 -0.06694871108480571
0003b0 dd 0e 5f 56 4c ce 6e bf 25 3a 2c ea c4 a5 88 bf
       -0.0037604800190552527 -0.012034929653535429
0003c0 16 0f 0c 4f 90 8d 89 3f 6c 95 a8 6f 16 31 db 3f
       0.012477042591406067 0.42487107185509987
0003d0 b5 1f c8 98 87 6a 94 3f b0 8c ad 64 2c f9 87 bf
       0.019937628459984775 -0.011705729315229924
0003e0 65 70 24 5a 96 a5 99 bf ca fc 63 08 de 02 69 3f
       -0.025045727969981963 0.003053125055089011
0003f0 fc a1 eb d6 f5 54 b2 3f 7b f9 1b de 05 c8 b7 3f
       0.07160889145928445 0.09289585754956946

bias f8 [2]
000000 96 d8 67 fd b3 bb 90 3f f7 97 aa e9 21 2e 87 3f
       0.01634103044667564 0.011318459456855818
